ReverseAttentionStyleTransfer/model/imdb_attn_r.pth (torch, 202399 bytes, 3 tensors)

W_k.weight f4 [100, 500]
00000000: fa1f 613c f444 583d 26a5 923d 2dd2 d8bd
00000010: 8866 b73c 81cd 023e e075 7abd f62f cabd
00000020: 636b 56bd d052 96bd 8d57 243c 069a 01be
00000030: def4 153c 6ed4 bfbb d7c4 07be 9ff2 86bd
00000040: ab16 683d bd15 bb3d 70ea c6bc fe73 23be
00000050: 6ae7 763c 9de3 bd3d 128d 023e 7499 0ebd
00000060: 43a4 343d 3c22 12be cb62 513d 081f d63d
00000070: 76ac ab3d 3443 0ebe 19c5 e43d 4fa2 36bc
00000080: 24b2 30bd 2e9e 7ebc 3ef9 d53d 9505 3dbc
00000090: 303b 973b b666 e3bd e3d6 883d 245d 07be
000000a0: ae93 e3bd 6cc2 f73c c962 1f3e 4196 a6ba
000000b0: 03c2 e23d b04e adbc a866 0bbe acc0 47bd
000000c0: 9093 b2bd 8418 3dbd ddab 10bc 9f68 ac3d
000000d0: e083 c63c 275b d03c 334e 9dbd f794 54bc
000000e0: b0d6 823d 1cd1 f33c bfdb 473c 252c 133c
000000f0: 9d99 0b3b 86b7 3ebd afe2 323c fea7 51be
00000100: e422 533e d363 e8bd b8aa 093c ed10 70bd
00000110: c23a eabd e5d0 bd3d 2733 f33d e196 32bd
00000120: e26b d93c 6fa0 1b3c d835 5cbd c8b2 06bd
00000130: daa9 453d e38e 90bd 842b cebd d7e1 953d
00000140: e914 fa3d ea13 90bd bcd3 143e 8836 c63d
00000150: fee2 fd3d 8cb4 593d c786 c03c b6f4 cb3d
00000160: c919 f43d 2d04 61ba e777 4fbd 5ffb d6bd
00000170: 4ede 863b 6051 c4bc c02b 303d b2a6 a3bd
00000180: 1e01 00be c43c c2bd f4de bfbd 4743 8d3d
00000190: 4085 043b 9ccd 053e 6fda abbc 7965 3abd
000001a0: 674a 2dbe c962 393d 5c91 60be d0b7 d33d
000001b0: 918a 833b 6c83 ae3d 8bbc 103e 9377 7bbd
000001c0: 2d6f 3e3e 20dc a93a a43d f3bc e635 0a3d
000001d0: 2bc1 db3b dcb1 18bd bf65 153b 7178 cdbd
000001e0: da82 21be eaba 4d3c c81d a43c e3d0 6cbd
000001f0: fb7f b2bd 98d4 15bd 28f3 853d 43c8 26be
00000200: b1bd 143c 0bc4 56bd f080 d33c cd75 e3bd
00000210: 7983 7abc 1504 68bd 104e b03c 861f a9bd
00000220: 77b3 b6bd 5f44 e03d 67da ddbd 89fe 15be
00000230: e684 0f3d 5e80 353e cfee 27be ad20 193d
00000240: 6fc8 963d 31bf f13a 6c3e 14bc 235c 0dbe
00000250: 5ec1 cbbc a7ae 2e3b 63d3 db3c 5bbb 9fbd
00000260: 2097 de3b 211c 953d 9812 95bb 95ca b6bc
00000270: 33da 1d3d c414 d9bc 80fa f43c de74 e8bc
00000280: b2a1 9c3d d02f 253d 7627 823d be80 a33d
00000290: 5a3b 1e3d 8e26 f0bc 1540 5a3d 5e29 553e
000002a0: b79a f4bc 2dc6 2b3a 8976 3cbd f37d 7e3d
000002b0: 924e c43d 6d6c 1f3d d021 e2bd 5a97 4e3e
000002c0: 06cf 95bd 72d6 f93d 4950 35bd bba7 6f3e
000002d0: 2139 1a3b 701f a23d 67b1 78bd c7f5 24bd
000002e0: fba3 ed3d 4bc8 04be 396a 4cbd 7e16 6f3b
000002f0: 070b 763e bc15 80bd ad06 d5bd 9436 1dbe
00000300: dc22 263e 1289 fd3c 138c 2f3d 68b7 0b3e
00000310: a2f5 9c3d f65d 0cbe 27b9 8c3d 127b eebd
00000320: fe23 133d be27 083d fde0 37be 9545 093e
00000330: 5164 083b 1560 ba3c 7b70 c63d db00 113d
00000340: 3809 a7bc afb2 a9bc f382 66bc 276a 7a3d
00000350: eed8 95bd 675c 82bd 6856 c0bc d4e2 1fbe
00000360: 7c1a 81be 551a 00be 4e1d a33c 0c08 b53d
00000370: b70e d6bb 4108 e1bd bc83 e2bd 5270 c5bd
00000380: e11e c8bb fca0 a33c 4ef9 033e 2144 ce3d
00000390: 57d3 253d d685 38bd 87c9 a9bc 5750 b53d
000003a0: 2585 8a3b 4dc9 24bd 964d 49bb 18e9 bebc
000003b0: 0528 6f3b c1f4 17be 8e01 e4bd 3333 18bd
000003c0: e572 0fbe 9e08 a4bd 67ef 8e3c 10de dfbc
000003d0: 156d eebd d889 053d 75d5 bbbd cd9b 99bc
000003e0: 928e 2fbe 37f4 c0bd f301 873d 2a16 1a3d
000003f0: 6091 933d bbe9 ad3d 233c e1bc 10fd 39bb
0.013740534 0.052800134 0.07160406 -0.10586963 0.022387758 0.12773706 -0.06114757 -0.09872429
-0.052348506 -0.07340014 0.010030639 -0.12656412 0.009152619 -0.005854181 -0.13258682 -0.06589245
0.056662243 0.091350056 -0.02428171 -0.15962216 0.015069822 0.092719294 0.12749127 -0.034814313
0.044101965 -0.14270872 0.051119607 0.104551375 0.08382504 -0.13892823 0.11170406 -0.011147096
-0.04313864 -0.015540643 0.1044793 -0.011536975 0.00461521 -0.11103575 0.066816114 -0.13219124
-0.11112152 0.030244075 0.15565027 -0.0012709574 0.11072161 -0.021155685 -0.13613379 -0.04876773
-0.087195516 -0.046165958 -0.008830038 0.084183924 0.024232805 0.02543409 -0.07680931 -0.012974969
0.06388605 0.029762797 0.012198388 0.008982693 0.0021301277 -0.04656174 0.010918303 -0.2047424
0.20618778 -0.11347165 0.008402519 -0.05860989 -0.114369884 0.09268359 0.11874991 -0.04360092
0.0265407 0.0094987 -0.053762287 -0.032885343 0.048257686 -0.070585035 -0.10066894 0.07318466
0.122110195 -0.07035048 0.14533895 0.0967837 0.12396811 0.0531507 0.023501767 0.09958784
0.11918981 -0.0008583691 -0.050651457 -0.10497164 0.0041158563 -0.023964584 0.043010473 -0.07990779
-0.12500426 -0.094842464 -0.09368697 0.06897598 0.0020221025 0.13066715 -0.02097818 -0.045506928
-0.16922913 0.045260224 -0.2193045 0.10337794 0.004014321 0.085211605 0.14134423 -0.06139333
0.18597098 0.0012959279 -0.029692478 0.033742808 0.006706377 -0.037278995 0.002279624 -0.10032738
-0.15772572 0.012556771 0.020033732 -0.057816397 -0.087158166 -0.0365797 0.06540519 -0.16287331
0.009078429 -0.052433055 0.025818318 -0.11106453 -0.015290135 -0.056644518 0.021521598 -0.08257966
-0.08920949 0.10950541 -0.108326726 -0.14647879 0.03503885 0.1772475 -0.16399692 0.037384678
0.073624484 0.001844382 -0.009048086 -0.13804679 -0.024872478 0.0026654394 0.026834195 -0.07799407
0.006792918 0.07280756 -0.0045493357 -0.022313396 0.03853817 -0.02649916 0.029904604 -0.02837604
0.076480284 0.0403288 0.06355183 0.0798354 0.03863082 -0.02931526 0.05328377 0.20816562
-0.02985893 0.0006552663 -0.04601148 0.062131833 0.095852986 0.038921762 -0.110416055 0.20174924
-0.07314877 0.12199105 -0.04426602 0.23403828 0.0023532587 0.079161525 -0.06071606 -0.040273454
0.116035424 -0.1296703 -0.04990599 0.0036481912 0.24027644 -0.062541455 -0.10401664 -0.15352851
0.16224235 0.03094915 0.042858195 0.13644183 0.07664038 -0.13707718 0.068712525 -0.116445675
0.035922997 0.033241026 -0.1795692 0.1340545 0.0020811746 0.022750894 0.09689423 0.035401206
-0.020390138 -0.020715086 -0.014069307 0.06113639 -0.07316767 -0.063652806 -0.023478702 -0.15613872
-0.25215518 -0.12510045 0.019911435 0.088394254 -0.006532516 -0.109879024 -0.110602826 -0.09640564
-0.0061071967 0.019974224 0.12888071 0.10071588 0.040484753 -0.04504951 -0.020725979 0.08853214
0.004227298 -0.040231038 -0.003071641 -0.023304507 0.003649236 -0.1483946 -0.11133109 -0.037158202
-0.14008673 -0.08009456 0.01744814 -0.027327567 -0.116418995 0.03260216 -0.09171573 -0.01875105
-0.1714423 -0.0942158 0.06592169 0.037618794 0.072054625 0.08491846 -0.027494496 -0.0028379597

W_k.bias f4 [100]
00000000: 46fa 14bd 5f53 6b3e 0d4e d1bc a9f7 11be
00000010: 0611 9c3d 4ca8 09bd 7b03 8bbd c627 863d
00000020: 6355 ff3d 943a 84bd d753 ad3c e006 853d
00000030: 3417 f9bd 6e5e e0bd f282 9bbd 3b36 30bc
00000040: 8071 683c 4ea1 0e3c ddd9 d4bb 8a80 303e
00000050: 94ea 16be af37 1b3e 8ca3 82bd 5660 5e3e
00000060: fafa f6bd f425 5dbd 81ae 143e 7a25 94bd
00000070: 44bc 02be 4ae1 c6bd c418 8c3c 15b8 27be
00000080: 034d f73d c83e 9abe e716 3cbe 588e d0bd
00000090: 8514 35bd fb09 813d dbff 333e 7204 16be
000000a0: 829f f93d 6046 c0bd f32a 0cbd 73b7 dfbd
000000b0: d187 3d3c 268f 7e3d 2ec1 30bb a2dd c5ba
000000c0: 0c29 9fbd 906c 20be 1310 aebd 3ca2 28be
000000d0: 9f07 96bd 11c0 363d 5ab1 09bd 5e91 483e
000000e0: 2a39 2c3d 5193 e63d db26 f43a 6549 163e
000000f0: 6dde 633e eff2 d53d 43a8 1f3d 6dbd 1d3e
00000100: 5a2f 513d 7292 febc 7b48 683e 88a8 b5bc
00000110: 6388 ba3d 0171 a83e 4a03 813e edb0 03be
00000120: 2929 233e 46f8 ccbd 56e4 3ebc c4d8 0d3d
00000130: 91db 8dbe 602d 0e3e 3e54 d93d eb32 ff3d
00000140: 26d4 383e ff2c 173e 1669 07bd 2d82 553c
00000150: a284 423d 750e 063e ff1d e5bd fcac 5bbd
00000160: 4ec5 623d 9081 bfbd 5593 903d ae7e 0bbd
00000170: 4311 973b a1a8 26bd 440f f63c 6622 433e
00000180: 2885 28bc 0cd6 a7bd 5cf8 67bc bcc1 78bd
-0.03637149 0.22981022 -0.025549913 -0.14254631 0.076204345 -0.033607766 -0.06787773 0.06550555
0.12467458 -0.064564854 0.021158142 0.06495452 -0.12162629 -0.10955511 -0.07593335 -0.010755117
0.014187217 0.00870545 -0.006495698 0.17236534 -0.14737922 0.1515796 -0.0637885 0.21716437
-0.12059589 -0.053991273 0.14519693 -0.072337106 -0.1276713 -0.09710939 0.017101653 -0.16378815
0.12075236 -0.30126023 -0.18368112 -0.101834 -0.044209022 0.06300732 0.1757807 -0.14650133
0.12188627 -0.09388423 -0.034220647 -0.10923662 0.011568026 0.062148236 -0.0026970613 -0.0015095959
-0.07771501 -0.15666413 -0.0849916 -0.16468138 -0.07325672 0.044616763 -0.0336164 0.19586703
0.042046703 0.11258567 0.0018627302 0.14676435 0.22252817 0.104467265 0.038978826 0.15404291
0.05107055 -0.03107569 0.22683899 -0.022175089 0.09108045 0.32898715 0.25197822 -0.1286046
0.1593367 -0.10008292 -0.011651119 0.034630552 -0.27706578 0.13884497 0.10611771 0.12460884
0.18049678 0.14763258 -0.033059202 0.013031525 0.04748977 0.13091452 -0.11187362 -0.053631768
0.055363946 -0.09350884 0.07059351 -0.034056358 0.004610212 -0.04068816 0.030036576 0.1905609
-0.010285653 -0.08195123 -0.014158335 -0.060731634

v.weight f4 [1, 100]
00000000: fb29 58bd 0838 ebbc 0d65 dc3c 71ab 063d
00000010: 6257 253d ddc9 0d3d 5842 df3c af20 40bd
00000020: 5b19 06bd 9103 bf3c 0a81 cabc e3e3 07bd
00000030: 13da 17bd 3afe af3c cf8e 32bd cf4d fc3c
00000040: 8c89 093d ad8e 10bd 5705 583d 6d5d d1bc
00000050: 2c07 b63c e38b f5bc 0289 0cbd ffdc c6bc
00000060: 4191 a83c 16f9 18bd abe8 3ebd b5f6 373d
00000070: 2e14 173d 4cb5 133d 4e89 0a3d 58a9 0a3d
00000080: 6fdb a1bc 7f13 0e3d 9d97 423d 2933 173d
00000090: b135 49bd df63 32bd a8ee 08bd e78b 283d
000000a0: ada5 b13c 2663 323d 74e3 f2bc db90 2b3d
000000b0: b978 fd3c b930 e4bc 14f6 1bbd 5134 583d
000000c0: 837f bfbc 09de ee3c 56c4 1f3d f5d6 5f3c
000000d0: 644f 19bd 45c9 03bd c005 c43c 6fe6 51bd
000000e0: 85fc 3cbd b4bc 19bd 4fc6 11bd 33a2 473d
000000f0: faff e6bc d9dd e03c 709a fd3c 1db0 11bd
00000100: d50b 143d a3d0 0bbd 49b8 27bd b68f a63c
00000110: 61eb 143d a927 8ebc 1556 24bd cd7b 013d
00000120: 35f0 75bc 256b bdbc 83f2 0d3d 5a89 d03c
00000130: f66b fa3c 618c 0f3d 9ac6 2ebd 8350 193d
00000140: fd01 0b3d 2cf6 b4bc e2c5 cbbc 60c0 d0bc
00000150: fd20 06bd c3e2 083d 1762 293d 3317 fabc
00000160: 17f6 30bd f03c 11bd 3e55 d2bc 056b 433d
00000170: 328c ba3c 9666 103d c69b 0cbd 39db d8bc
00000180: 7a12 493d e362 3b3d 89c3 f2bc ec64 f03c
-0.05277441 -0.028713241 0.026903654 0.032878343 0.040366538 0.03461634 0.027253315 -0.04690617
-0.032739025 0.02331713 -0.024719734 -0.033176314 -0.037073206 0.02148353 -0.043593224 0.03079882
0.03357844 -0.035292316 0.052739467 -0.025557244 0.022220217 -0.02997393 -0.03431035 -0.024275301
0.020577075 -0.03734692 -0.04660861 0.044913013 0.03688448 0.03606157 0.03382235 0.033852905
-0.019757954 0.03468656 0.04750787 0.036914025 -0.04912347 -0.043552276 -0.033430725 0.041149046
0.021685446 0.043551587 -0.029649474 0.04188619 0.030941354 -0.027855264 -0.038076475 0.052784268
-0.023376232 0.029158609 0.0390056 0.01366209 -0.03742923 -0.032174367 0.023928523 -0.05124515
-0.04613926 -0.037533477 -0.035589512 0.04873867 -0.028198231 0.027449535 0.03095743 -0.035568345
0.036144096 -0.03413452 -0.040947232 0.020332199 0.036357287 -0.017352896 -0.040121157 0.031612206
-0.015010883 -0.02312238 0.034655105 0.02545612 0.030569058 0.035045985 -0.04266987 0.037430298
0.033937443 -0.02209004 -0.024874631 -0.025482357 -0.032746304 0.03341938 0.04135331 -0.03052864
-0.04320344 -0.035458505 -0.025675412 0.047709484 0.022771928 0.035254084 -0.034328245 -0.026471721
0.049089886 0.045748603 -0.029634254 0.029344998
