ReverseAttentionStyleTransfer/model/imdb_senti_r.pth (torch, 5095 bytes, 2 tensors)

linear.weight f4 [2, 500]
0.07941403 0.14111874 -0.12356257 -0.11724316 0.17031844 -0.08711553 -0.15784061 0.11885419
-0.11853748 -0.120686345 -0.13352805 0.06799431 0.02045295 0.11066386 -0.07565724 -0.0199637
-0.1611035 -0.11665098 0.13514951 -0.12680475 -0.08174513 -0.11852744 0.07072963 0.07384815
-0.10839076 0.10635469 0.060297947 -0.13018163 -0.0909778 -0.12555735 -0.14901787 -0.1262449
-0.02137218 -0.08062188 -0.14635998 0.09153626 -0.13775478 -0.096479736 0.11289047 -0.16097933
0.037393216 0.086922936 0.036264937 -0.065650694 -0.14855027 -0.08219661 -0.22883451 -0.04480832
0.07625371 -0.10088519 0.091339566 0.0140075805 0.022682313 0.08630749 -0.14323653 0.16284002
-0.08223684 -0.15401037 0.07467406 0.13570496 -0.2051694 -0.013382345 0.09383662 0.02956111
0.041944712 0.123852916 -0.067369744 -0.14814572 0.005771736 0.053308163 -0.0865865 0.10103241
-0.06788826 0.09012317 -0.0027808663 -0.022741238 0.08756558 -0.035744984 -0.083388954 -0.08261352
0.06892924 0.022257224 0.15343948 0.13170356 -0.003839075 0.1408784 0.026024468 -0.10976747
0.14975753 0.12910046 -0.105202496 0.1757913 -0.13187042 0.11488911 0.10763848 -0.027316708
0.053311493 0.07746323 -0.14366712 -0.016578352 0.13725452 0.08805755 0.034283128 3.5131804e-06
-0.10415111 0.12618417 -0.043897863 -0.036618955 -0.02721948 0.14621255 -0.07149962 0.15355192
-0.14809173 0.10999535 0.15738827 0.1014976 -0.13535981 -0.0317262 0.05533553 -0.07831364
0.08743723 0.047531858 -0.09786477 -0.02023253 -0.025246494 0.131875 0.09294532 0.07080128
0.007659736 -0.08818484 -0.066388614 0.06832111 0.037125304 -0.06480711 -0.14278044 0.10607517
0.056867328 0.12599479 -0.15731762 -0.08938186 -0.11308623 -0.041542407 -0.18232529 0.008303234
-0.11034129 0.06817383 -0.024822915 0.080684446 0.07178205 0.14717148 -0.015019389 -0.077786855
0.089298375 0.17696019 0.006908919 -0.053390376 -0.065613225 -0.07848951 -0.07311575 0.12673211
-0.19445385 0.02910286 0.21225883 0.06776066 0.16274449 -0.061379846 0.13898835 -0.12896311
0.14819048 0.037614122 -0.06519486 0.17403118 0.08204817 0.05845805 -0.12628344 -0.084008135
-0.117028855 -0.00970101 0.09064011 0.0022401945 0.07039278 0.08149951 0.11854986 -0.089140445
0.13798872 -0.1274848 -0.0141840745 -0.09473541 0.06621951 -0.11411409 0.12708108 -0.077571854
0.19056405 0.04571225 0.06636359 0.11658078 -0.010466019 -0.17961203 0.041683145 0.077805094
0.18112475 -0.16785125 0.049221132 -0.07874384 -0.1478369 -0.045926534 -0.034271076 -0.050106216
-0.016794262 -0.009765714 -0.10618223 0.0646865 -0.076050796 -0.1812596 0.002840706 -0.16249497
0.04027613 -0.104538955 0.06664559 -0.06900182 -0.0055649383 -0.14981446 0.056307767 -0.029646566
-0.07472337 0.034090426 -0.012717115 -0.03452527 0.10570427 -0.11995435 -0.10850302 0.16193405
0.002009822 -0.1426504 0.1717092 0.025216758 -0.03808302 0.002138182 0.02038132 -0.1437398
-0.10183258 -0.13217857 0.062571354 -0.14349645 -0.12880811 0.022605823 0.1340462 -0.055288
0.096475884 0.04654914 -0.082098104 0.068540044 0.06451409 -0.18586655 0.14055307 0.12890662
00000000: d3a3 a23d 6e81 103e 5f0e fdbd 2f1d f0bd
00000010: f567 2e3e a169 b2bd f8a0 21be d369 f33d
00000020: c7c3 f2bd 672a f7bd 94bb 08be 9a40 8b3d
00000030: f28c a73c bca3 e23d 2ff2 9abd ea8a a3bc
00000040: 51f8 24be b6e6 eebd a264 0a3e 1bd9 01be
00000050: fe69 a7bd 84be f2bd b2da 903d b33d 973d
00000060: fafb ddbd 7dd0 d93d fbfa 763d 554e 05be
00000070: 9252 babd 1b92 00be 2498 18be 5846 01be
00000080: b614 afbc 161d a5bd 64df 15be 5d77 bb3d
00000090: 970f 0dbe 2b97 c5bd 1e33 e73d c4d7 24be
000000a0: a129 193d a704 b23d 8b8a 143d df73 86bd
000000b0: 901d 18be b256 a8bd 9853 6abe ee88 37bd
000000c0: e82a 9c3d e59c cebd 3d10 bb3d 0d80 653c
000000d0: 42d0 b93c fbc1 b03d 99ac 12be 89bf 263e
000000e0: ca6b a8bd e5b4 1dbe b7ee 983d 3ef6 0a3e
000000f0: ed17 52be a041 5bbc 6a2d c03d 242a f23c
00000100: 38ce 2b3d 99a6 fd3d 26f9 89bd 83b3 17be
00000110: d520 bd3b a959 5a3d 4354 b1bd 15ea ce3d
00000120: 0009 8bbd 7f92 b83d 323f 36bb d54b babc
00000130: 9555 b33d 5569 12bd d4c7 aabd 4731 a9bd
00000140: c62a 8d3d c854 b63c 3d1f 1d3e 4cdd 063e
00000150: fe98 7bbb 6d42 103e 4431 d53c c4cd e0bd
00000160: 0a5a 193e e932 043e 6874 d7bd a202 343e
00000170: 0a09 07be fb4a eb3d 9071 dc3d 4ac7 dfbc
00000180: 275d 5a3d 0ba5 9e3d 791d 13be 53cf 87bc
00000190: 738c 0c3e 8457 b43d 776c 0c3d fbc3 6b36
000001a0: 2d4d d5bd 6c36 013e 3fce 33bd c2fd 15bd
000001b0: 63fb debc beb8 153e 656e 92bd b73c 1d3e
000001c0: 5ca5 17be 3e45 e13d 642a 213e f9dd cf3d
000001d0: c39b 0abe 55f3 01bd 82a7 623d e762 a0bd
000001e0: 4a12 b33d c4b0 423d 536d c8bd b1be a5bc
000001f0: bcd1 cebc 3d0a 073e 1e5a be3d 4300 913d
00000200: 86fe fa3b 419a b4bd c1f6 87bd f0eb 8b3d
00000210: b410 183d 97b9 84bd 0935 12be f03d d93d
00000220: b7ed 683d c704 013e df17 21be d60d b7bd
00000230: c199 e7bd 5f28 2abd 7bb3 3abe 4a0a 083c
00000240: 9dfa e1bd b99e 8b3d 6d59 cbbc e33d a53d
00000250: 7802 933d 1fb4 163e e213 76bc b74e 9fbd
00000260: 11e2 b63d 0d35 353e 3764 e23b deaf 5abd
00000270: 3a60 86bd 1cbf a0bd b6bd 95bd 10c6 013e
00000280: e91e 47be 1f69 ee3c 615a 593e 1ac6 8a3d
00000290: 7ea6 263e 6f69 7bbd f652 0e3e e80e 04be
000002a0: 3fbf 173e 4411 1a3d e284 85bd 3b35 323e
000002b0: df08 a83d b571 6f3d 7250 01be 750c acbd
000002c0: d3ac efbd fcf0 1ebc 86a1 b93d 3ad0 123b
000002d0: 172a 903d 37e9 a63d 45ca f23d 448f b6bd
000002e0: ea4c 0d3e 608b 02be 5264 68bc a304 c2bd
000002f0: 189e 873d a6b4 e9bd 8b21 023e fedd 9ebd
00000300: 3923 433e c53c 3b3d a2e9 873d e7c1 ee3d
00000310: aa79 2bbc 37ec 37be f2bb 2a3d 4758 9f3d
00000320: c478 393e 33e1 2bbe 199c 493d 7344 a1bd
00000330: 8e62 17be 761d 3cbd d45f 0cbd 2d3c 4dbd
00000340: 1f94 89bc 6000 20bc 1276 d9bd 5b7a 843d
00000350: 85c0 9bbd 1e9c 39be 232b 3a3b 1565 26be
00000360: 95f8 243d 8518 d6bd 7c7d 883d d450 8dbd
00000370: 165a b6bb f668 19be f9a2 663d 5bdd f2bc
00000380: 9108 99bd 67a2 0b3d 725b 50bc 5f6a 0dbd
00000390: 7b7b d83d a0aa f5bd d536 debd 0ad2 253e
000003a0: 38b7 033b f212 12be 89d4 2f3e 6093 ce3c
000003b0: f1fc 1bbd be20 0c3b baf6 a63c 8730 13be
000003c0: 9a8d d0bd d259 07be 6925 803d bcf0 12be
000003d0: 46e6 03be d92f b93c 6843 093e ab75 62bd
000003e0: 2695 c53d 50aa 3e3d 0d23 a8bd b95e 8c3d
000003f0: f71f 843d cd53 3ebe 25ed 0f3e 1900 043e

linear.bias f4 [2]
-0.0033723337 -0.0013881942
00000000: 5f02 5dbb 11f4 b5ba
