ReverseAttentionStyleTransfer/model/imdb_attn_eval.pth (torch, 202399 bytes, 3 tensors)

W_k.weight f4 [100, 500]
00000000: a4e8 89bd 61c6 593d 7040 7f3b a1a8 58bd
00000010: 3d0b 1b3c df89 06be 3976 98bc 7738 083e
00000020: f625 d9bd 2b8a 2bbd c089 9c3c 3b3a a73d
00000030: ad34 9c3b 05bc 4fbe d2ff 3d3e 2100 3b3d
00000040: ac46 87be 2dbd 22be 0fee 863e fb79 2bbe
00000050: e48c fb3c 28d0 9c3d 4e86 3b3d f87f 01bd
00000060: e7f2 d7bd 71db dcbc ee13 903c 3ba9 8a3b
00000070: a83e 993d 651f 3ebb ec3c 223d 4fe8 46bd
00000080: 9c27 d8bc e714 8e3d 12a3 1c3e 7d88 01be
00000090: 6cae 723e 0df4 213d f0de 053e dda4 253e
000000a0: e8dc ab3d 7e23 993d 5dd4 893b 6a82 343d
000000b0: 34fc 9e3d c2c3 16bd 74f9 44bd 9a19 0d3e
000000c0: 2a0c 9a3d b4b6 84be f335 cb3c 8711 66be
000000d0: 8e59 40bc fd5c 8cbd 97f5 ca3d 723b 46be
000000e0: fb0b b53d f98c bd3c adfe 363d c337 99bd
000000f0: d2a1 a6bd 40f3 073e dad3 293d 51ec 67bc
00000100: e012 ca3d 0aae 1abe be02 8d3d de36 143e
00000110: 039d 783d 071a 333e db4b b7bd fc3f 2d3c
00000120: 27bf 703d 3d0b 283d c7df 3d3e e170 773d
00000130: 38e6 a1bb 6c7f bdbd 9fbc 293e 0f27 47bd
00000140: 74ed df3b bdb5 e23b 4a45 0fbd 23ec bdbc
00000150: f825 a13c ec5b 213d 7972 9e3c d2d3 00be
00000160: fb28 113d 2433 4ebe 8eef a03d 28dd 0fbd
00000170: 39fc 05be 7fdc eebd 28b5 52bd 2887 46bd
00000180: cd5c 4b3d d8d3 5bbd c09c e4bc e464 9a3d
00000190: 2d37 00be 5c09 37be 393f b2bd a194 5bbe
000001a0: e883 7c3d d1c1 ee3d 4baa bc3c 6ff2 86bd
000001b0: 8a22 08be 7c60 d03d 4ca7 b53c 21c2 4dbd
000001c0: 80b1 8b3d 4e6a 8b3d f068 203d a588 2abd
000001d0: c0ff 6abd 6c68 b0bd 48a0 dfbc bd07 eebd
000001e0: ad51 adbd cba7 06be ca58 28be 5217 4bbb
000001f0: da0d 8bbd d100 dd3d b3c2 80ba 2330 00be
00000200: 7450 063e e647 a13d a30b 0bbd 3eee 4fbd
00000210: 3a0d 183b b5fb 463d 3dc1 903c 2024 cd3c
00000220: 39a4 323d 8e24 bd3a 31bb 00bd 9ba9 b4bd
00000230: 233f 12bd f94d ab3d abe8 bd3d ae2e a73b
00000240: 682c 193d 33a7 c73d 8e9e acbd cd20 0fbe
00000250: 08e7 c1bc 6dad 97bd 9d22 cb3d edc6 edbc
00000260: 80fa cebd 1e98 70bd 4b6c c8bd 1586 9cbd
00000270: 5599 d23d 7e48 8a3d 9c30 ca3c 8da4 163e
00000280: 483c 023e 0585 163e 5319 8bbd fade ea3d
00000290: 8e55 173e 9f18 c93c e1d6 c2bc 25b8 8e3c
000002a0: 5c9a fe3d 389a e63d a879 c3bd 6194 62be
000002b0: ac5b b23d fb30 0b3e 71e1 cdbd 3e1c d43d
000002c0: ae4f 0cbe 0578 033c 84f3 8ebc da51 823d
000002d0: 511e 21bd d42b 7d3d 5947 88bd 6356 b5bc
000002e0: a9ea a13d 859e dfbd 86d1 3b3d e1c7 9fbd
000002f0: a092 143e bf97 99bc 1e2a ecbd 675f 92bd
00000300: 85cb 77bd 642e d4bd da14 42bd 828c 34be
00000310: 3adc 173d 5d0a 48be ffe1 083d 2e4f 0bbd
00000320: 1053 afbd 0ce0 7a3d 605a 013e 691b 92bc
00000330: d413 993c 053a 8b3d a4fe a43c 934f 34bc
00000340: 8817 363c bcc3 0ebe 3d72 05bd 8507 af3d
00000350: 3a42 1cbd 2119 d5bd 35f0 9a3b ae2a 893d
00000360: 3eab 6039 1282 95bd ab83 6a3d d88a 103d
00000370: 56d8 14be d4f6 e43d 2d22 a4bb a5a0 1f3e
00000380: 8c43 f5bc c3aa 943c 3465 693e 7b9a 2a3d
00000390: b6dc d2bd 32a2 b03c 545a e13d 501e 943d
000003a0: 5887 693d b162 22be d026 25be 6eb8 343d
000003b0: 336d 34bd 4659 c6bc 0e5c d5bd 65ad 24be
000003c0: 8a02 473e 2bb5 6d3d 57ad 883b 0690 11be
000003d0: feb7 933d 521b f7bd a8dd 13bd a817 d23c
000003e0: c17a 183e 194d ccbc 2cac 05be 306e bebd
000003f0: ad45 8bbd d16e f5bd 3ec8 b13d 189a 6e3c
-0.06733826 0.053167704 0.003894832 -0.052895192 0.009463129 -0.13138531 -0.01861106 0.1330279
-0.106029436 -0.041879814 0.019108653 0.081654035 0.0047670216 -0.20286568 0.18554619 0.04565442
-0.26421106 -0.15892477 0.263535 -0.1674575 0.03070683 0.0765689 0.04578238 -0.03161618
-0.10544377 -0.026960107 0.017587628 0.0042315996 0.07482654 -0.0029010412 0.03960888 -0.04856139
-0.026386075 0.069375806 0.15296581 -0.12649722 0.23699349 0.039539386 0.13073325 0.16176172
0.08391744 0.07477473 0.004206224 0.044069685 0.07762948 -0.036807783 -0.04808946 0.13779297
0.07521851 -0.2592064 0.024805998 -0.22467624 -0.0117401015 -0.068536736 0.09910124 -0.19358614
0.08840176 0.02313851 0.04467647 -0.07481339 -0.081363335 0.13276386 0.041461803 -0.014155463
0.09866881 -0.15105453 0.06885289 0.14474055 0.060696613 0.17490397 -0.08950015 0.010574337
0.058776047 0.041026343 0.18542396 0.060410384 -0.0049407743 -0.092528194 0.1657586 -0.048621234
0.0068337265 0.0069186375 -0.03497819 -0.023183888 0.019671425 0.039394304 0.019341694 -0.12580803
0.035439473 -0.20136696 0.078581914 -0.03512302 -0.13084497 -0.1166315 -0.051442295 -0.04846874
0.04964905 -0.053668827 -0.027906775 0.075387746 -0.12521048 -0.17874664 -0.08703465 -0.21443416
0.061649233 0.11658061 0.02303042 -0.06589209 -0.13294426 0.10174653 0.0221745 -0.050233964
0.06820965 0.068073854 0.039162576 -0.04163422 -0.05737281 -0.08613667 -0.027298108 -0.1162257
-0.08462844 -0.13149945 -0.1644012 -0.0030989242 -0.06789751 0.10791171 -0.000982365 -0.12518363
0.13116628 0.07875042 -0.033946645 -0.050764315 0.0023201243 0.04857989 0.017670268 0.02504164
0.043613646 0.001443045 -0.03142852 -0.08821412 -0.035704743 0.083644815 0.092728935 0.005102
0.037395865 0.097486876 -0.084286794 -0.13977356 -0.023669735 -0.07406125 0.09918711 -0.02902552
-0.10106373 -0.05873882 -0.0978628 -0.076427616 0.10283152 0.06752108 0.024681382 0.14711209
0.12718308 0.1469918 -0.067919396 0.11468311 0.1477873 0.024547873 -0.023784103 0.017421791
0.124317855 0.11259884 -0.095446885 -0.22126915 0.08708891 0.13592903 -0.10052765 0.10356949
-0.1370227 0.00802422 -0.017450102 0.06363268 -0.039335553 0.061809376 -0.066542335 -0.022135919
0.07906086 -0.10918907 0.045854114 -0.07801796 0.14509058 -0.018749116 -0.11531471 -0.07147103
-0.060496826 -0.10360411 -0.047383167 -0.17631724 0.03707526 -0.19535203 0.03341865 -0.03401106
-0.08560765 0.061248824 0.12632132 -0.017835336 0.018686213 0.06798176 0.020140953 -0.0110053
0.011114009 -0.13941854 -0.03257965 0.08546356 -0.038149096 -0.104051836 0.004728342 0.06697594
0.00021426097 -0.073001996 0.057254475 0.03528866 -0.1453565 0.11179891 -0.005008957 0.15588625
-0.029939435 0.018147832 0.22792512 0.04165123 -0.102960035 0.021561716 0.11003557 0.07232344
0.05701384 -0.1585796 -0.16128087 0.0441212 -0.044049453 -0.02421249 -0.10417949 -0.1608177
0.19434562 0.058034103 0.0041710543 -0.14215097 0.07212828 -0.12065758 -0.03610006 0.025646046
0.14890577 -0.024939107 -0.1305396 -0.0929836 -0.06800399 -0.11984027 0.08680771 0.014563106

W_k.bias f4 [100]
00000000: 72df 14be 3cb7 1c3c bbbd 863c 553f 7d3e
00000010: 1ab2 70bd d63a 343e 4a8f 513e 2d4c 6bbd
00000020: 784c c9bd 3fed 37be f5a2 bcbd ba09 093c
00000030: 4b81 5d3d ea59 093e 98ea 4c3d b1d3 133e
00000040: 7aa6 55be 6e5b 2abd 0a80 58bd 4e79 d8bd
00000050: 19b7 1cbe c379 0b3e ab9b 13be c64e 1bbe
00000060: 25df 2f3e 1644 033d b877 4abd 724e eabd
00000070: e90e 60be 2711 863d 98ed db3c 44b1 6a3d
00000080: 9f12 3fbd 36de 80be c23e 9e3c 4aa6 cabd
00000090: ef8d 29bd 03cb c7bd 533f 813e 1e77 ee3c
000000a0: 2146 033d ebc4 c4bb 3514 3c3e 1560 febd
000000b0: aa1e f43d 710a 9abd 6bab 103e 1a29 833e
000000c0: 3959 5e3e ddb8 023e 2398 883c 5819 133e
000000d0: a2a4 95bd 7309 21be a240 063d c427 10be
000000e0: c673 ac3d 222a aabd 3ad8 14be 8041 bcbd
000000f0: 548f 153e b62b bebb 6eb0 19bd 38ac 62be
00000100: b4a1 2a3e 7df8 dbbd 3153 293e 644f 88bd
00000110: 0469 69be c1c4 fb3c 98be 653e 3480 d6bd
00000120: b27d 4bbc 167f ec3d 412f a2bd ccea 95bd
00000130: be50 f93d 7c57 c93d 0d50 083e 748b 7e3d
00000140: b94b a13d e604 3b3e 82c0 cf3d 1ece 78bd
00000150: b3f7 fd3d 4aaa 1a3e 284d 16bb 729d 29bd
00000160: 6233 1abe 8f97 823e 082a 4dbd 500d 563e
00000170: d21c d9bd 89d5 333e cbaf c8bd cdcb 63bd
00000180: 5bb1 16be 5b22 4ebe e13a 37be 2e78 8dbd
-0.14538363 0.009565171 0.016447892 0.2473119 -0.0587636 0.17600569 0.20464817 -0.057445694
-0.098290384 -0.17961596 -0.09210769 0.008364135 0.05407838 0.13413206 0.050028414 0.14436223
-0.20864287 -0.0415911 -0.052856483 -0.10570012 -0.15304221 0.13620667 -0.14414851 -0.15166768
0.17174967 0.032047354 -0.04943058 -0.114407435 -0.21880688 0.0654624 0.026846692 0.05729796
-0.046648618 -0.25169533 0.019317035 -0.09894998 -0.041395124 -0.09755518 0.25243625 0.029109534
0.032049302 -0.0060049198 0.18367083 -0.1242067 0.11919911 -0.07521523 0.14127891 0.25617296
0.21713723 0.12765832 0.016674107 0.14365137 -0.07306792 -0.15726261 0.032776482 -0.1407767
0.084205195 -0.083088174 -0.14535609 -0.09192181 0.14605457 -0.0058035506 -0.037521772 -0.22136009
0.16663247 -0.10740755 0.16535641 -0.066557676 -0.22793967 0.030733468 0.22435987 -0.104736716
-0.012420105 0.11547677 -0.07919169 -0.073201746 0.121736035 0.098311394 0.13311787 0.06214471
0.07875771 0.18263587 0.1014414 -0.060743444 0.124007605 0.15104023 -0.0022934172 -0.041409917
-0.15058663 0.25506255 -0.050088912 0.20903516 -0.106012 0.17561926 -0.09799155 -0.05561428
-0.14716093 -0.20130293 -0.17893554 -0.06907688

v.weight f4 [1, 100]
00000000: 1d7f 433d 73b4 1ebd 019d 39bd 91b6 39bd
00000010: 02cd fa3c d75c ebbc d3aa 97bc 8324 203d
00000020: cea3 1f3d 7407 263d 1bec 793c 36a2 26bd
00000030: 1f54 0ebd a306 24bd 8f1d c8bc 47de 01bd
00000040: a47c 463d 6ffb e93c c6bf 8a3c 4547 293d
00000050: b245 1c3d a9b1 22bd eaa8 06bd 204a 6c3d
00000060: 35a5 15bd 464e 2abd b462 193d 9fa6 d93c
00000070: e5ef 023d 70e7 1f3d 3d02 2dbd 93ae 30bd
00000080: 5f83 03bd a173 1f3d d73d 43bd 5cfa 043d
00000090: c460 1e3d 0aae 263d e263 07bd bcd8 15bd
000000a0: b581 433d e348 503d 5a4c 16bd 4097 08bd
000000b0: bbf8 0ebd 17ca 1e3d ead1 05bd cf03 32bd
000000c0: c6ed b5bc d025 0fbd 4ad1 19bd 77a9 ffbc
000000d0: 83d6 113d cd6d c5bc 8744 a1bc 2df5 0b3d
000000e0: 3788 43bd 0241 bc3c f85f 093d 57c0 4a3d
000000f0: 9cca babc f982 d43c 0602 093d cf99 3a3d
00000100: fb2a 36bd 09c0 323d fa8f 103d f7ac c83c
00000110: 6e01 2a3d 02ff 71bc 5c25 513d b14d 383d
00000120: d1f9 eabc b0d6 00bd 6a4d 303d e430 023d
00000130: 48a9 3cbc e9b4 d1bc c4fa e3bc 79c3 1abd
00000140: b000 e7bc 6734 16bd c618 f53c 6568 e9bc
00000150: 6c6d f8bc f828 23bd 00fe 563d e69d 7ebc
00000160: 1d1e 6a3c 5cf9 42bd 36c7 51bd 9f06 0ebd
00000170: a165 8e3c 3098 edbc 33cb 013d 9f27 173d
00000180: f28f c8bc 1f22 1b3d fc22 223d 5db9 19bd
0.047728647 -0.03874631 -0.045315746 -0.045340125 0.030615333 -0.028730793 -0.018514073 0.03909732
0.038974576 0.04053445 0.015254046 -0.04068204 -0.034748193 -0.04004539 -0.024428157 -0.03170612
0.04845871 0.028562276 0.016937148 0.041327734 0.038152404 -0.03972021 -0.032875933 0.05768788
-0.036534507 -0.041578554 0.037447646 0.026568709 0.031967063 0.039039075 -0.042238463 -0.043135237
-0.032107707 0.03892863 -0.047666397 0.032465324 0.0386665 0.04069332 -0.03305424 -0.036583647
0.04773112 0.05085076 -0.03669391 -0.03334737 -0.034905177 0.038766947 -0.032670893 -0.043460663
-0.022208106 -0.03494817 -0.03755311 -0.031208737 0.035604965 -0.024100209 -0.019685997 0.034169365
-0.047737326 0.022980217 0.03353879 0.049499836 -0.02280169 0.025941359 0.033449195 0.04555684
-0.044474583 0.04364017 0.035293557 0.024496539 0.04150527 -0.014770271 0.05106102 0.044995967
-0.028683575 -0.031454742 0.043042578 0.031784907 -0.011514969 -0.02559896 -0.027829535 -0.037784074
-0.02819857 -0.03667107 0.02991904 -0.028492162 -0.030325614 -0.039833993 0.052488327 -0.015540576
0.014289406 -0.04760109 -0.051215373 -0.034674283 0.017382445 -0.029003233 0.031687927 0.03690302
-0.024482701 0.037874337 0.039584145 -0.03753029
