ReverseAttentionStyleTransfer/model/imdb_senti_eval.pth (torch, 5095 bytes, 2 tensors)

linear.weight f4 [2, 500]
0	0xbd611813	-0.0549546
1	0xbdb341d3	-0.08752789
2	0x3dbdad10	0.09261525
3	0xbd28dae3	-0.04122437
4	0xbe1bd9dd	-0.15219827
5	0x3d7055ac	0.058675453
6	0x3e20432e	0.15650627
7	0xbd64f946	-0.05590179
8	0xbdc2b415	-0.09507004
9	0x3e193aae	0.14963791
10	0xbd45a76e	-0.048255377
11	0x3dd6841b	0.10474416
12	0xbdf0121f	-0.11722206
13	0xbd096d1b	-0.033551317
14	0x3c4f69dc	0.012659516
15	0x3d461a9e	0.048365228
16	0xbe2a4830	-0.166291
17	0xbe1c1c56	-0.15245184
18	0x3c9e1b13	0.01930002
19	0xbda685da	-0.08130999
20	0x3dd0ebff	0.10201263
21	0xbe34c7ad	-0.17654295
22	0x3d4e8e93	0.050428938
23	0x3cf24cd6	0.029577654
24	0x3d4d7e87	0.050169494
25	0x3ce4778c	0.027889036
26	0xbe085432	-0.13313368
27	0xbe2cc2de	-0.16871211
28	0x3df92449	0.12165124
29	0x3e24ecbe	0.16105935
30	0xbd1311a1	-0.035905484
31	0xbe286617	-0.16445194
32	0x3dff8516	0.12476556
33	0x3d9fea23	0.0780833
34	0xbd7c1023	-0.061538827
35	0x3dfcee13	0.123500966
36	0x3d4da619	0.05020723
37	0x3df6cdf8	0.12051004
38	0x3d742a9c	0.059610948
39	0x3d91e44e	0.07123624
40	0x3c5700a8	0.013122715
41	0xbdef8c08	-0.11696631
42	0xbd5222f9	-0.051302884
43	0xbd4f67c9	-0.050636087
44	0x3cef1b87	0.02918793
45	0xbd438a26	-0.04773917
46	0xbd02dd34	-0.031949237
47	0xbd61fcb3	-0.055172633
48	0x3e09aad1	0.13444068
49	0xbd063552	-0.032765694
50	0x3e046978	0.12930858
51	0xbe1196d1	-0.14217688
52	0x3cfb21cd	0.030655766
53	0xbde8ec27	-0.113731675
54	0x3cfe5c56	0.031049889
55	0xbd9755a5	-0.07389382
56	0xbdb24ff8	-0.08706659
57	0x3e090644	0.13381296
58	0xbe38910d	-0.18024082
59	0x3d8ba3a2	0.0681832
60	0x3da22934	0.07918015
61	0x3e04601b	0.12927286
62	0x3dc568f0	0.09639156
63	0xbd31ba65	-0.04339065
64	0x3df7e231	0.121036895
65	0xbd53d306	-0.05171492
66	0x3de5d1d3	0.112216614
67	0xbe0e4860	-0.13894796
68	0x3e059cec	0.13048142
69	0x3d9e7e1a	0.07738896
70	0xbd80ff04	-0.0629864
71	0x3df01ff9	0.11724848
72	0x3df3d111	0.119051106
73	0xbe1a6f74	-0.15081578
74	0x3d9b66bb	0.07587954
75	0xbd41714d	-0.047227193
76	0xbdcf4b19	-0.101217456
77	0xbda9aae2	-0.082845464
78	0x3e212a04	0.15738684
79	0x3db1d6ff	0.086835854
80	0xbd9640c4	-0.07336572
81	0xbdfb864a	-0.12281473
82	0xbdd0bd27	-0.10192328
83	0x3da137a1	0.078719385
84	0xba8fcbe8	-0.0010970803
85	0x3c675416	0.014119169
86	0x3db722ce	0.08942185
87	0xbd6deafc	-0.058085427
88	0x3da62daa	0.081141785
89	0xbd77be47	-0.060484197
90	0x3e1c9356	0.15290579
91	0xbe05278e	-0.1300337
92	0x3ce2662c	0.02763661
93	0xbd76e2e8	-0.06027499
94	0xbe1e9284	-0.15485579
95	0xbe042e62	-0.12908319
96	0xbda9a899	-0.082841106
97	0x3e194344	0.14967066
98	0xbe3b2608	-0.18276227
99	0x3e419f07	0.1890832
100	0xbd7d2248	-0.06180027
101	0xbd99121f	-0.074741594
102	0x3dcc1368	0.09964639
103	0xbcb695f1	-0.022288295
104	0x3df0f24d	0.11764965
105	0x3de4fe30	0.11181295
106	0x3e2b5bef	0.16734289
107	0x3d54c7f7	0.051948514
108	0xbdc9c755	-0.09852473
109	0x3db17d32	0.08666457
110	0xbe2d6442	-0.16932777
111	0xbc9a46f0	-0.018832654
112	0xbd283402	-0.041065224
113	0x3db2c3a3	0.08728721
114	0xbd850c82	-0.06496526
115	0x3db0937a	0.08621879
116	0xbd8d2b3c	-0.06893012
117	0x3b09fcb3	0.0021055161
118	0xbdc78201	-0.09741593
119	0xbdd2d000	-0.10293579
120	0x3cc37014	0.023857154
121	0xbd29a969	-0.041421328
122	0xbd16cca8	-0.03681627
123	0xbd9e1be3	-0.07720163
124	0xbd206ce4	-0.039166346
125	0x3cfc7f49	0.030822413
126	0x3db433a1	0.0879891
127	0xbdb0055c	-0.08594772
128	0x3e0ce47f	0.1375904
129	0xbe213dd8	-0.15746248
130	0x3d368510	0.044560492
131	0xbdb8b8f8	-0.09019655
132	0xbc43bf1c	-0.0119474195
133	0x3c1582f8	0.009125464
134	0x3dc94974	0.09828463
135	0xbe1e2b06	-0.154461
136	0x3e04df1c	0.12975734
137	0x3d21183a	0.039329745
138	0xbda9d4e0	-0.08292556
139	0xbe08c5a6	-0.13356647
140	0x3e04013e	0.12891099
141	0xbc9454d5	-0.018106857
142	0xbd97cac2	-0.0741172
143	0xbd60fa5a	-0.054926254
144	0x3cbfbcb9	0.02340542
145	0x3d8dc832	0.0692295
146	0xbdd61d58	-0.104548156
147	0xbe2a191f	-0.16611145
148	0x3e17ac66	0.14811859
149	0xbd9220fe	-0.07135199
150	0x3e0d78af	0.13815568
151	0xbdfd0df5	-0.12356178
152	0x3bc92ef1	0.006139629
153	0x3d8a9537	0.06766742
154	0x3b91b8fa	0.0044470998
155	0xbd13aecb	-0.036055367
156	0x3e144008	0.14477551
157	0xbe08eff4	-0.13372785
158	0x3c7dad2c	0.015483182
159	0xbc868d94	-0.016424932
160	0x3cdb49c8	0.02676858
161	0x3da7761c	0.081768245
162	0xbc8f1711	-0.017467054
163	0x3ca51693	0.020152366
164	0x3dba9e61	0.0911224
165	0xbdfca7bb	-0.123366795
166	0xbda70dbc	-0.081569165
167	0x3d3c8222	0.04602254
168	0x3e0a3fd6	0.13500914
169	0x3e32ab32	0.17448118
170	0xbde797a5	-0.11308221
171	0xbe14dbc4	-0.14536959
172	0xbdfe73f7	-0.12424462
173	0xbbf20392	-0.0073856795
174	0xbe422687	-0.1896001
175	0x3d1e155f	0.0385946
176	0x3d0926ba	0.0334842
177	0xbd144d69	-0.036206637
178	0xbe08c3ae	-0.13355896
179	0x3d837382	0.06418516
180	0xbd422673	-0.04739995
181	0xbceaf5f8	-0.02868174
182	0x3d353313	0.04423816
183	0xbd8fc288	-0.07019526
184	0x3df185fe	0.11793135
185	0xbda513e4	-0.080604345
186	0x3dc59ee7	0.09649449
187	0xbde4ee06	-0.11178212
188	0x3b0f9505	0.002190889
189	0x3dd3bb36	0.10338442
190	0xbde95e8b	-0.11394986
191	0xbd098b2e	-0.033579998
192	0xbd489ef7	-0.048979726
193	0xbdcafb55	-0.09911219
194	0x3d95c29e	0.07312511
195	0xbe042e5e	-0.12908313
196	0xbd0213cd	-0.031757165
197	0x3d98536a	0.07437785
198	0xbe0b5acd	-0.13608856
199	0xbd460f6a	-0.048354544
200	0xbda42753	-0.08015313
201	0x3d3de0b6	0.04635688
202	0x3e0f68f2	0.14004877
203	0x3c2312bc	0.009953197
204	0xbd001056	-0.03126558
205	0xbdea2d1f	-0.114343874
206	0xbcbf1558	-0.023325607
207	0xbd500d36	-0.05079385
208	0xbdbf66be	-0.093457684
209	0xbdd05342	-0.1017213
210	0x3d55aa80	0.052164555
211	0x3d330daf	0.04371422
212	0xbd75168b	-0.05983595
213	0x3c65beb8	0.014022522
214	0xbd001112	-0.03126628
215	0x3e44c4e2	0.1921573
216	0xbd713c9e	-0.0588957
217	0xbe6225b2	-0.22084692
218	0xb8dd00e2	-0.000105382656
219	0x3da37087	0.07980447
220	0xbda36461	-0.0797813
221	0xbde55484	-0.11197761
222	0xbcdb4bbc	-0.026769511
223	0xba98cf2b	-0.001165842
224	0xbdce8ca5	-0.100854196
225	0x3db50ed9	0.088407226
226	0xbd96eb58	-0.07369107
227	0xbda88fe2	-0.082305685
228	0xbd5997c5	-0.053123254
229	0x3d9c07ee	0.076187
230	0x3e42df45	0.19030483
231	0xbe13429b	-0.14380877
232	0xbe167855	-0.1469434
233	0x3d1d318e	0.038377337
234	0x396efb45	0.00022791054
235	0x3dbcc35c	0.09216949
236	0xbdfa44f9	-0.12220187
237	0xbd7bdf84	-0.061492458
238	0x3cb4af59	0.022056269
239	0xbceb5173	-0.028725361
240	0x3d9c5634	0.076336294
241	0xbd3a3a24	-0.045465603
242	0xbd7ead83	-0.062177192
243	0xbdf518aa	-0.11967595
244	0xbddf81db	-0.1091344
245	0xbcdffe60	-0.027342975
246	0xbdcfa89b	-0.10139581
247	0x3dfce3c1	0.12348128
248	0x3e16ecbe	0.14738747
249	0xbde12a8b	-0.109944426
250	0xbd52fa5a	-0.051508285
251	0xbde36594	-0.11103359
252	0xbcf9539e	-0.03043538
253	0xbdc39508	-0.0954991
254	0x3bf2261f	0.0073897983
255	0xbdada06d	-0.084778644

linear.bias f4 [2]
0	0xbcf33d35	-0.029692272
1	0x3bde60d3	0.0067864447
