ReverseAttentionStyleTransfer/model/imdb_attn_cls.pth (torch, 202399 bytes, 3 tensors)

W_k.weight f4 [100, 500]
000000 4d 82 28 3d 9b 1e 06 bd 13 52 03 bd cd c8 3a 3d
       0.04113989 -0.03274403 -0.032060694 0.045601655
000010 11 b8 34 be d8 ca 9a bd a2 e7 66 bd 4d 42 da 3d
       -0.17648341 -0.075582206 -0.056373246 0.10657177
000020 a1 9d 0f bd 01 6d 40 3e d9 7f ea ba 70 70 cc bc
       -0.035062436 0.18791582 -0.0017890885 -0.024955958
000030 6b 6e 00 3d 7e 07 f7 bd 77 f4 ae bb d4 5e df 3b
       0.031355303 -0.12061976 -0.005339201 0.0068167243
000040 ca 85 56 3d 25 c4 d1 3d 30 21 bc bd 58 a2 45 3c
       0.052373685 0.1024249 -0.091860175 0.012062632
000050 13 77 ac 3c 70 b8 49 3d 8c b2 33 3c 50 04 d7 bc
       0.021052873 0.04924816 0.010967862 -0.026247174
000060 93 25 82 3b d2 a3 99 3d 71 88 c2 bd 72 ee 01 3d
       0.0039717644 0.07501949 -0.094986804 0.03172154
000070 ca 39 ae bd 9a bd b0 3d 74 a7 84 bc 2f ed a0 bc
       -0.08507116 0.08629914 -0.01619313 -0.019644348
000080 f0 23 ac 3c 3f 8b 82 bd 1e 8e e7 3d 26 69 90 3d
       0.02101323 -0.06374215 0.113064036 0.070513055
000090 51 56 8a 3d 19 e8 75 3d ec ab de bd aa ce 1d bd
       0.06754745 0.0600358 -0.10872635 -0.03852717
0000a0 31 ce 69 bd 0f 46 1a 3d 4f 46 03 3d 89 24 2c bb
       -0.057081405 0.03766447 0.032049473 -0.0026266894
0000b0 fa 7b e1 39 fa c3 2d 3d cf ac af 3d c5 c2 07 3d
       0.00043007714 0.042423226 0.085778825 0.03314473
0000c0 9a 04 e5 bd cf 99 39 3c 31 02 1d 3e 61 22 60 bd
       -0.11182518 0.011328175 0.15332867 -0.054720286
0000d0 7b 8f e5 3d 97 ad b1 bd 90 13 86 3d 86 b6 68 3c
       0.11209007 -0.08675688 0.065467 0.014203673
0000e0 8d f8 47 bc a3 09 6f 3d cd d3 82 3c cf da 65 bd
       -0.012205255 0.0583588 0.015970135 -0.056116875
0000f0 25 fc 58 bd 87 64 b3 3d 0f 61 ea 3c 0a f3 f7 3b
       -0.05297484 0.087594084 0.028610734 0.0075668143
000100 c6 7d 27 bd 62 aa 8e 3c 0d 9e 0e bd 66 47 37 3d
       -0.04089143 0.01741523 -0.034818698 0.044745825
000110 cf 87 b9 bd 89 c5 b2 bd b8 52 e6 3b a6 c4 e0 bd
       -0.090591066 -0.08729083 0.007028904 -0.10975008
000120 c6 5b b2 3b d2 78 57 3d b0 1a 8e bd e6 39 36 bd
       0.005443069 0.052605458 -0.06938684 -0.04448881
000130 aa ea 46 3c d4 11 44 3d fe df c9 3c 08 da 5b bd
       0.012140909 0.047868565 0.02464294 -0.053674728
000140 64 62 d0 bd 83 eb 35 bd c8 51 ad 3c 10 5b 8b bd
       -0.101750165 -0.044414055 0.02115716 -0.06804478
000150 40 62 eb 3c c7 fc 02 3c 8b 14 52 3b 11 de ca 3c
       0.028733373 0.007994837 0.0032055702 0.024764093
000160 86 dd b3 bd 9d 7f f0 bc 2a 45 1f be 18 68 4f bc
       -0.087824866 -0.029357726 -0.15553728 -0.012659095
000170 ef db 6a bd d2 5f 4b 3d 62 18 a5 bd 32 bd 3e bb
       -0.05733865 0.04965193 -0.08061291 -0.0029104468
000180 f5 70 d5 3d 5a 76 c6 3c 1b d1 64 bd a9 1a 22 3d
       0.104219355 0.024226356 -0.05586348 0.039576206
000190 1a 30 db ba 60 0f e8 3c 60 38 77 bd 26 19 a3 3c
       -0.0016722709 0.028327644 -0.060356498 0.019909453
0001a0 7d d9 5e bd fb 82 82 3d 60 d8 95 3d d4 5e 97 bd
       -0.05440663 0.06372639 0.07316661 -0.07391134
0001b0 18 a6 48 bd c6 2e bb 3c 8e 07 b1 3d a6 03 ba bd
       -0.048986524 0.022849452 0.08644019 -0.09082727
0001c0 c4 42 0a bd 86 17 9f bd 9f 34 be bd 02 5f 49 bc
       -0.03375508 -0.077681586 -0.092873804 -0.012290718
0001d0 dd 73 9f 3d 16 25 e1 38 ee f4 a5 bc 3d d6 b1 bd
       0.07785771 0.00010735744 -0.020258393 -0.08683441
0001e0 2f 3b 69 bd f3 2c 39 3e 75 33 f7 bc de e3 45 3c
       -0.056941207 0.18083553 -0.030175904 0.012078254
0001f0 9c d7 47 3c 12 26 af 3c 3c e4 3f bd 61 88 55 3c
       0.012197401 0.021380458 -0.04684852 0.013033004
000200 e5 81 a1 3d ce c4 8c 3d 0d 83 ad bb 0f ba 08 3b
       0.078861035 0.06873475 -0.0052951635 0.0020862853
000210 ad d4 e0 bb ca 75 19 3d 02 5d 01 bd 3e c4 55 3d
       -0.0068612904 0.037465848 -0.03158284 0.052189104
000220 db c4 32 3d 9a b5 06 3d b0 43 97 3d a9 e1 fa 3d
       0.043644767 0.032888032 0.07385957 0.122500725
000230 66 1e 89 3d da a7 5e 3d d4 bc 82 3c 04 f7 a2 bd
       0.06695251 0.054359294 0.01595918 -0.07957271
000240 6f a7 06 bd 96 e6 86 bd 14 29 96 bc 6d b9 84 bc
       -0.03287452 -0.065869495 -0.018330134 -0.0162017
000250 71 26 8c 3d 0b 90 2d bc 62 cb 9e 3d b4 8b 77 bc
       0.068432696 -0.010593425 0.07753636 -0.015108991
000260 c4 92 e8 3b 05 0d 26 3c a0 68 87 3d 7f 27 4d 3d
       0.007097574 0.01013494 0.066117525 0.050086495
000270 51 bf a3 bb 67 de b4 bd 3f 12 23 bd 3c bc 97 bd
       -0.004997172 -0.088314824 -0.039812323 -0.0740895
000280 bf a2 a4 3d da d0 14 bd c6 e3 b1 bd b7 d6 72 3d
       0.08038854 -0.03633199 -0.086860225 0.0592868
000290 61 b0 8f bd 94 5d d9 3c 53 49 f9 3b e9 c3 25 3d
       -0.070160635 0.02653388 0.007607618 0.040470038
0002a0 33 28 84 bc ee 71 00 bd 06 fc c7 bd b8 a8 9d bc
       -0.01613245 -0.03135865 -0.097648665 -0.01924549
0002b0 04 5f 0e bd d0 c3 14 3e 11 ce 89 bd b4 1a 9a bd
       -0.034758583 0.14527822 -0.06728757 -0.075246245
0002c0 6a 18 a9 3d fe 2c 05 bb 84 8e a6 3b 77 d9 2e 3e
       0.0825661 -0.0020321007 0.005082907 0.17075144
0002d0 f9 26 6c 3b f8 05 9a bd 58 83 2e 3d 6e 55 40 bc
       0.0036033972 -0.0752067 0.042605728 -0.011739118
0002e0 a3 bf fa 3c e6 58 65 3e 78 1a 7b 3d fa 69 b2 bd
       0.030608958 0.22397193 0.06130454 -0.0871162
0002f0 01 65 83 3d d2 38 87 bd 9b 51 33 3d 2e df 31 3d
       0.06415749 -0.066026345 0.043778997 0.04342573
000300 e4 90 bc bc 7e db e3 3c 3e 41 84 bc d0 c5 8a 3d
       -0.023018308 0.027814623 -0.016144391 0.06776011
000310 71 b7 c1 bd fa 1c 2c bd c1 78 54 bd f4 e9 68 bb
       -0.09458817 -0.04201982 -0.051872972 -0.0035539838
000320 e8 4a a4 3d c2 bc 32 bc 1a a1 ac bd e2 71 45 3c
       0.080221 -0.010909261 -0.08429165 0.012051078
000330 47 a8 83 bd b4 fe 06 3e 16 81 2a 3c ca fa 1b 3a
       -0.06428581 0.13183099 0.010406753 0.0005950151
000340 c5 04 63 3c 20 fa e9 3d a0 f9 68 3d a9 da 8a 3c
       0.013856118 0.11424661 0.056878686 0.016949968
000350 03 cd 0e 3e f2 3e 46 3d 34 c3 8d bc 63 79 0e 3d
       0.13945393 0.048399873 -0.017304994 0.034783732
000360 9f 1b f3 3d 20 d1 e6 3c 04 26 3d 3d 77 a5 bf 3c
       0.11870503 0.02817589 0.046178833 0.02339433
000370 86 5e a8 3b b9 92 88 3d e5 d1 86 38 0e c7 fb 3d
       0.005138221 0.0666861 6.428714e-05 0.12293826
000380 b9 b0 a7 bc fc c5 e7 bb 89 f4 3a 3d c5 1f e8 3b
       -0.02047001 -0.007073162 0.045643363 0.0070838653
000390 79 30 3d 3b a8 71 07 3e 93 e5 8d bd 2e 2d 74 3d
       0.0028868003 0.1322695 -0.069285534 0.0596134
0003a0 d6 21 a8 3c 04 1a 0f 3e 60 e0 db bc 85 6b db 3d
       0.020523947 0.13974768 -0.026840389 0.10713867
0003b0 47 3a 02 3d 14 cf 8c bb 6b c1 fe bc 29 bf 64 bd
       0.03179386 -0.0042971466 -0.031098088 -0.055846367
0003c0 12 08 3f bd eb 8b bb bc aa 47 8a 3d ff 92 b1 3b
       -0.046638556 -0.022893867 0.0675195 0.0054191346
0003d0 77 a2 c7 3c ba fc 16 bc 13 4b be 3d 13 88 84 3c
       0.024369461 -0.009215528 0.09291663 0.016178166
0003e0 70 a4 11 3d 36 dd 15 be f7 bf fe bc 58 f4 f6 3c
       0.03555721 -0.14635167 -0.031097395 0.030145809
0003f0 79 bc 72 3d 2a b6 55 be 40 c8 fe 3d 42 04 d0 3d
       0.059261773 -0.20870271 0.124405384 0.10157062

W_k.bias f4 [100]
000000 89 0e 71 bd 5e 8a bc bd 2d be c1 3d c2 1a 94 3d
       -0.058851752 -0.09206079 0.09460101 0.07231666
000010 ec 7e d2 bc 6a bc 4d 3b ad 02 9b bc 53 9a cb bd
       -0.025695287 0.003139282 -0.018922174 -0.099415444
000020 53 e5 5a bd b2 01 57 bd f8 84 e2 3d 13 79 8d 3d
       -0.053441357 -0.05249185 0.11060518 0.06907859
000030 f0 77 00 3e 96 e3 4d 3d 03 8d c1 bd a9 b6 20 3e
       0.12545753 0.05026587 -0.09450724 0.1569468
000040 39 8b 4d bd ad 36 ab 3c 4b 7f aa 3d 3c 27 c7 bd
       -0.0501816 0.020900095 0.083250605 -0.0972428
000050 be 86 0e be 13 79 97 3d c5 e6 02 3e 98 f5 19 3e
       -0.13918588 0.0739614 0.12783344 0.15035093
000060 56 2a f3 bc 32 19 7d bd 6b dc c1 3b b9 a4 c3 3b
       -0.029683273 -0.061791606 0.0059161684 0.005970564
000070 f8 7e 50 3d 46 2c 47 3d 6d 74 16 3e 04 52 d4 3d
       0.050902337 0.048626207 0.1469285 0.10367206
000080 02 e8 59 bd 69 3e ef bd 73 ad f9 bd 36 78 a2 bd
       -0.053199776 -0.11681826 -0.12191286 -0.07933085
000090 3d 87 2c 3e 5e f9 0a 3e be 81 a9 3d 30 5b c9 bd
       0.16848464 0.13571689 0.082766995 -0.09831846
0000a0 b0 6d dd 3c 9b 8c 82 3d c7 e3 75 3d 33 86 1b 3c
       0.027029842 0.063744746 0.06003168 0.009492445
0000b0 68 f0 7c 3c 86 cb 76 3d ea d2 a4 3d ce 7b ae bd
       0.015438177 0.06025269 0.08048041 -0.085197076
0000c0 f6 96 c5 bd 7e b6 d8 bd 64 63 8c bd 5c 01 8b bd
       -0.09647934 -0.105816826 -0.06854895 -0.06787369
0000d0 1b 53 07 be ff eb 38 3c 41 52 08 be 34 39 79 3a
       -0.13215296 0.011286735 -0.13312627 0.000950712
0000e0 3b 56 c3 3c 16 f1 65 3d 8b b9 00 3e dd d1 c1 bc
       0.023844829 0.05613812 0.12570779 -0.02365964
0000f0 8a 90 e3 bc e9 b0 a8 bc 3c e7 19 bd fa b1 b6 bc
       -0.027778883 -0.02059217 -0.037574038 -0.022301663
000100 f3 fe 4c 3c da 60 1b 3e bf 18 63 3d 16 46 46 bd
       0.0125119565 0.15173665 0.05544352 -0.048406683
000110 65 40 0c bc a9 76 be 3c 5b 89 f3 bd eb b2 9c ba
       -0.008560275 0.023249941 -0.11891433 -0.0011955177
000120 99 36 05 bc ee a7 9c 3d 51 4d 1e bd 81 f2 9e bd
       -0.008130693 0.076492175 -0.038647953 -0.07761098
000130 01 70 9f bc b0 ad 22 be bd cb a2 bd 93 6f 05 be
       -0.019462587 -0.15886569 -0.07949016 -0.13030843
000140 85 f4 17 bd 5e 03 1f 3e 84 e5 fd 3d 5d af fd bc
       -0.037098426 0.15528628 0.12397292 -0.030967409
000150 75 76 c9 3d 0b 96 13 3c 92 72 e2 3c 7e 49 58 be
       0.09837047 0.009007941 0.027642522 -0.21121785
000160 9f 14 ad 3d db 28 57 bc 04 ab 96 bc c5 0f 1b bb
       0.08451199 -0.013132299 -0.018392093 -0.0023660522
000170 8d 29 3e 3c a4 3a 21 3e 9d 4c c4 3c fd 85 9c 3d
       0.011606586 0.15745026 0.023962313 0.07642744
000180 70 2a 32 3d 23 7c f1 bd c3 36 3e 3c b0 9e 68 be
       0.043497503 -0.11791255 0.011609736 -0.22716784

v.weight f4 [1, 100]
000000 7d 7e 3b 3d 1e c0 0d 3d 7d cd 1d bd cd 47 81 3c
       0.045774926 0.034607045 -0.038526047 0.015781308
000010 2d 5c 0d bd 00 56 35 3d 43 28 da 3c 4e 1a 36 3d
       -0.034511734 0.04427147 0.026630526 0.04445868
000020 da 65 f4 3c 6e 6d 19 3d ad 95 1a bd 8b c6 2c bd
       0.029833723 0.037457876 -0.0377404 -0.042181533
000030 a1 b2 24 bd cc 4d 09 bd cb 9a d2 3c 64 be 5b bd
       -0.040209416 -0.03352146 0.025708577 -0.053648368
000040 0a b4 19 3d ae ef 29 bd 92 de 12 3d cd 4a 05 bd
       0.037525214 -0.041488342 0.03585679 -0.03254204
000050 93 60 08 3d a3 9d 52 3d f0 0f 0c bd 59 0d 04 bd
       0.033295225 0.051419865 -0.034194887 -0.03223929
000060 2b 40 18 3d 83 1e a5 bc 22 25 1b bd 54 4c 10 bd
       0.03717057 -0.02015615 -0.03787721 -0.035229042
000070 27 95 0b 3d 24 16 55 3d dc a5 d5 bc a3 89 32 bd
       0.03407779 0.052023068 -0.026080064 -0.04358829
000080 0e dc 1c 3d 7f 10 62 3d 7c c4 11 3d 3b 6f 95 3c
       0.038295798 0.055191513 0.035587773 0.018241515
000090 b8 10 4d 3d ee aa 3f bd 67 a1 54 bd 66 9f 43 3d
       0.050064772 -0.04679387 -0.051911738 0.047759436
0000a0 72 4c e2 3c f4 74 4e bd 17 d2 6e 3d ca e2 42 bd
       0.027624343 -0.050404504 0.058305826 -0.047579564
0000b0 bc fb e6 bc ff 57 b6 bc ab ac b2 bc 2d 35 15 3d
       -0.028196208 -0.022258757 -0.02181085 0.036427666
0000c0 56 a7 34 3d 06 67 0b 3d 1e 1f a4 3c b3 43 02 3d
       0.044104896 0.034033798 0.02003437 0.031802844
0000d0 10 8f 48 bd 79 1e 29 3d f0 39 ee 3c 7f ad e4 3c
       -0.04896456 0.041288827 0.029080361 0.02791476
0000e0 0e a4 03 bd 17 d1 1a bd 0e 77 14 3d b2 c7 e1 bc
       -0.032138877 -0.03779706 0.036246352 -0.027561042
0000f0 3d 2f 3d bd c5 6b 29 bd ed 8d cc 3c f4 82 38 3d
       -0.046187628 -0.041362543 0.02497002 0.04504676
000100 b3 85 1c bd f2 8e 22 bd b1 56 14 3d 7a a1 54 3d
       -0.038213443 -0.039687105 0.036215488 0.05191181
000110 bf af 4a 3d 25 1b f7 bc ce d5 f7 bc 6a 0f 7d 3c
       0.04948401 -0.03016431 -0.030253317 0.0154455695
000120 63 3c 4d 3c 75 42 50 3d 0d 42 3f bd ca 25 23 3d
       0.012526604 0.05084463 -0.04669385 0.03983096
000130 a0 3d 0c 3d 1a 5f b2 3c 6e aa 52 3d 3f 93 17 3d
       0.034238458 0.021773864 0.051432066 0.03700566
000140 b8 bf 0d 3d 60 51 01 bd 12 dd 42 bd 78 c8 5a 3d
       0.034606665 -0.031571746 -0.04757411 0.05341384
000150 c3 94 11 bd a3 a6 49 3d 59 30 b4 3c 33 d5 0b 3d
       -0.03554226 0.049231183 0.02199571 0.03413887
000160 a4 0a 2b bd 27 d7 50 bd 3f a0 e1 bc 3b 68 f9 bc
       -0.041758195 -0.050986435 -0.027542232 -0.030445209
000170 cc a7 2f bd 4d 59 21 3d 10 f6 db 3c 5c 33 ca 3c
       -0.042884633 0.039391804 0.02685073 0.024682693
000180 2e 2a d4 bc cd 7d 20 bd 2f 13 22 bd 95 0c 30 3d
       -0.02589902 -0.039182473 -0.039569076 0.04298075
