ReverseAttentionStyleTransfer/model/imdb_senti_cls.pth (torch, 5095 bytes, 2 tensors)

linear.weight f4 [2, 500]
000000 7f f8 06 bd 0d 27 08 3e 90 a5 2b bd 4f fb 54 bc
       -0.032951828 0.13296147 -0.04190594 -0.01299937
000010 be 63 87 3c 44 f6 0d 3e df 84 b4 3d 40 d7 29 3d
       0.016527053 0.13863474 0.08814406 0.041465044
000020 94 d2 8e 3d f8 d9 a8 bd 4a fc 05 bd bf 74 98 bd
       0.06973758 -0.08244699 -0.032711305 -0.074441426
000030 09 5b c1 bd f2 d4 64 bd d9 7a 0a 3c 5f eb 23 3d
       -0.09441192 -0.055867143 0.008452141 0.04001939
000040 b9 a4 51 3d 7e e5 93 bd ea bc f7 3c 44 5f 85 3d
       0.051182482 -0.072215065 0.030241448 0.06512311
000050 ee d4 8e bc 71 da ab bd 8c 58 10 3e ba aa 91 bd
       -0.017435517 -0.08391274 0.14096278 -0.07112642
000060 c7 20 f0 bd ba ae 79 3d a2 17 1e 3e 98 6e 53 3d
       -0.11725002 0.060957648 0.15438703 0.051619142
000070 c6 fb f5 bd 67 5a 2a be 7b 43 bc bd 70 85 31 bd
       -0.120109126 -0.16636048 -0.091925584 -0.043340147
000080 c0 e6 1b be dc 24 8d bb 44 48 09 3e 79 b0 ef 3d
       -0.15224743 -0.0043073725 0.13406473 0.11703581
000090 d9 45 dc 3d 12 52 77 3d 70 6a bc bd 7b 64 07 be
       0.1075551 0.060381003 -0.09199989 -0.13221924
0000a0 d5 79 ad 3a df 1f a0 bd 0c 0d 00 be 9a 5a 55 3d
       0.0013235161 -0.07818579 -0.12504977 0.052088358
0000b0 2e 6e af 3d 2b d3 89 3d 6a 90 ab 3d 45 e3 a7 3d
       0.08565937 0.0672973 0.08377154 0.08197645
0000c0 7e b2 5d bd 16 ad ed 3d 56 e4 f2 3d 0c 81 b2 bc
       -0.0541253 0.11605279 0.11859958 -0.02179005
0000d0 e6 1d 5e 3d 7d 71 7f bc 81 06 8c bd 5c 96 97 3b
       0.054227732 -0.015591023 -0.06837178 0.0046260785
0000e0 43 1c 34 bc 0f 3d 78 3d 9b 20 ec 3d ec 71 87 3d
       -0.010993066 0.060605105 0.115296565 0.06613526
0000f0 b7 3d 51 be 96 ba 0c be b4 3a de 3c 80 c9 83 3d
       -0.20433699 -0.13743052 0.027127601 0.064349174
000100 16 69 e6 3d de ef c8 3d 0e ed 8c bd c0 e0 ff 3d
       0.11250512 0.09811376 -0.06881152 0.124940395
000110 d0 db a4 bd e0 69 d2 3d f9 24 bc 3d c0 d9 e9 3c
       -0.080497384 0.102741 0.091867395 0.028546214
000120 44 88 a3 bb 60 60 01 bd 16 d4 b8 bd 1d 28 60 bd
       -0.0049906094 -0.03158605 -0.09024827 -0.054725755
000130 c7 a0 9c bd 85 32 06 3d cc c9 8b 3d 26 21 1c 3e
       -0.07647853 0.032763023 0.06825599 0.1524702
000140 3a 0e 28 bd dd 63 12 3d 3e b2 69 3d 40 9e d3 bb
       -0.041029193 0.03573977 0.05705475 -0.006458074
000150 4d b3 09 3e 81 af f6 bd 8f 3d 1d bd ae 2d 87 bd
       0.13447304 -0.120451935 -0.038388785 -0.066005096
000160 66 3a 16 3d d6 29 03 3e 97 12 48 3d 2a 86 ef 3d
       0.036676787 0.12808928 0.048845854 0.11695512
000170 cb 3e c7 3d 06 2a 93 bd 5a 3a 7a bd 5a 5e ea bd
       0.09728774 -0.0718575 -0.061090805 -0.114437774
000180 49 0e 62 bc e9 b7 95 bd 0a 1e 4b bd fb da c8 3d
       -0.013797351 -0.07310469 -0.049589194 0.09807392
000190 ef 23 cf bd 2d 4d 79 3d 95 62 ae bd ca eb c5 3d
       -0.10114276 0.060864616 -0.08514897 0.09664114
0001a0 e3 92 e7 bd 26 e7 2c bc 34 39 44 3d 45 bd cf bc
       -0.11307313 -0.010553157 0.047906116 -0.025358805
0001b0 33 70 a0 3d 1e b8 9a 3c fd fa c8 bc 99 83 b9 3d
       0.078339 0.018886622 -0.024533743 0.090583034
0001c0 a4 76 f0 3d 17 3d 15 be 3e 5d 05 be 3f d8 10 be
       0.11741379 -0.14574085 -0.1302385 -0.14144991
0001d0 25 f9 f1 bd 94 97 66 bd f8 f5 8c bd 2d c0 1a 3d
       -0.11815099 -0.0562969 -0.06882852 0.03778093
0001e0 5f db a5 3d f5 b7 48 bd 4b ef 81 3c 0b 8f 35 3d
       0.08098482 -0.04900356 0.015861174 0.04432587
0001f0 ca 6c 82 bc 62 a8 ee bd 52 94 a6 bd 12 b2 b2 3c
       -0.015921015 -0.1165321 -0.081337586 0.021813426
000200 3d 33 61 bd 0f b0 05 3d be 0f 6d 3d 8a 6f 10 be
       -0.054980505 0.032638606 0.05787634 -0.14105049
000210 bc 02 7f 3d b9 a3 76 3d ba 84 1f bd 3b ca 9a bc
       0.062258467 0.06021473 -0.038944937 -0.01889526
000220 59 4f 9b 3d e0 b9 1c bd cc 79 90 3d 28 8a 4a bd
       0.07583494 -0.0382632 0.07054481 -0.049448162
000230 b0 24 d4 3c c9 1a 09 3e ff 4f 83 bd 6d be 04 3c
       0.0258964 0.13389124 -0.064117424 0.008102042
000240 32 56 d0 3d 4b 7f f3 3a 91 d5 02 3e af 9c ca 3d
       0.101726905 0.0018577365 0.12776782 0.09893166
000250 d4 9e ce bd 78 e0 34 bd 2c ff bd bd 3d 9b 13 3e
       -0.10088888 -0.044159383 -0.09277186 0.14414687
000260 03 24 16 bd 96 c7 5f bc c0 e5 8b bc 8c ac a0 3d
       -0.036655437 -0.013658425 -0.017077327 0.07845411
000270 a4 0d 0b 3e 8d c2 5f bd 34 94 08 3e 11 39 0c be
       0.13579422 -0.054628897 0.13337785 -0.13693644
000280 f6 eb 96 bd c5 e0 0b be 1b 4c b1 3c 41 f4 c5 bd
       -0.07369225 -0.13659962 0.021642735 -0.09665728
000290 86 7d f3 bd 70 3a 0c be 4a e9 02 3e 34 2e 09 3d
       -0.11889176 -0.13694167 0.12784305 0.03349133
0002a0 39 7a b8 3d 69 60 06 3c 60 fa 84 3d ab ff 8c bd
       0.09007687 0.008201697 0.06493068 -0.06884702
0002b0 60 a8 53 bd f7 e1 b5 bd fe 27 48 3d 1b 0c ad bd
       -0.051674247 -0.0888099 0.048866265 -0.084495746
0002c0 95 0d 00 3c 9f 4e 9e bd a7 fe 9e 3d 41 29 d7 bd
       0.007815738 -0.077298395 0.07763415 -0.105059154
0002d0 99 a0 d4 bd 6d b7 b8 bd 50 d1 82 bd e1 d7 dd 3d
       -0.10382194 -0.09019361 -0.063875794 0.10832191
0002e0 ae 81 3b 3b ff 29 55 3d c4 0f 1b 3e c5 fc 94 bd
       0.002861123 0.052042004 0.15142733 -0.072747745
0002f0 7d a7 92 bc b1 29 df 3d 2e 86 da 3c 31 05 85 bd
       -0.01790213 0.10896624 0.02667531 -0.06495131
000300 b0 b0 dd 3d 46 f8 ae bc 46 a5 f7 bd 5b 99 02 3d
       0.10824716 -0.02135862 -0.1209207 0.031884532
000310 33 ad b2 3d 10 39 6d 3d 4f 1a 94 3c 48 3e 33 3a
       0.087244414 0.057915747 0.018078951 0.0006837589
000320 fe 48 a8 3c 92 91 02 3d 99 be 34 bd 9c 87 22 3d
       0.020542618 0.031877108 -0.04412708 0.03968011
000330 84 fe 96 3d 5f 7c 29 bb 47 0e aa bd c1 05 cf 3d
       0.07372764 -0.0025861484 -0.083035044 0.10108519
000340 7a b5 86 bd 30 81 82 3c f5 cc 0e bc 51 11 53 3d
       -0.06577583 0.015930742 -0.008715858 0.051530186
000350 77 a9 d0 bc a2 b5 cc bd 1d 19 14 be 96 cc 1e bc
       -0.025471432 -0.09995581 -0.14462705 -0.009692332
000360 50 af 3d 3c 84 00 15 3e a8 d8 fa bd f4 2f da 3b
       0.011577442 0.14550978 -0.12248355 0.0066585485
000370 6d 6c 6c 3c 58 4e 24 3d df 4a fb bc e8 7c 7f bc
       0.014430148 0.040113777 -0.03067535 -0.015593745
000380 5f 20 50 3c 80 dc 44 3d 66 15 4a bd 04 84 39 bd
       0.01270303 0.048061848 -0.049336813 -0.045291916
000390 4f c6 d3 bd 3b 6f fb bd 6f 2c 0d be 72 0d 8a 3d
       -0.10340559 -0.12277075 -0.13786481 0.06740846
0003a0 22 07 c8 bc a5 2a 82 bd d2 76 c2 3d 9e ae ea 3c
       -0.024417464 -0.0635579 0.094953194 0.028647717
0003b0 eb 03 50 3c 78 77 a8 bc d8 cf 09 3d b1 83 58 3d
       0.012696247 -0.02056478 0.03364548 0.052859966
0003c0 d6 9d 90 bd 8d 17 99 3d 59 b1 17 3c c3 ac da 3d
       -0.07061355 0.07475195 0.009258592 0.10677483
0003d0 2d b2 ef 3d e2 a1 89 bc 4a 33 42 bd f4 6e e4 3d
       0.11703906 -0.016800825 -0.047412194 0.11153975
0003e0 bc 2d 31 bd 41 cf 35 3d a4 b1 72 3d 3d 52 8c 3d
       -0.043256506 0.044387106 0.059251443 0.06851623
0003f0 be 33 e2 3c 92 a6 b8 bd 7f db 0b 3d ad 03 d4 bd
       0.027612563 -0.09016146 0.034144875 -0.103522636

linear.bias f4 [2]
000000 3e 1a 70 3c 8d 46 c6 bc
       0.014654694 -0.024203563
