ReverseAttentionStyleTransfer/model/yelp_senti_eval.pth (torch, 5095 bytes, 2 tensors)

linear.weight f4 [2, 500]
000000 d6 08 1a 3d 0a 42 e7 3d 76 db 9c bd cf 45 a7 3d
       0.037606083 0.11291893 -0.07659046 0.08167612
000010 70 9e d1 bd ba f7 15 3d e8 d8 27 bd ee c9 bd bb
       -0.10235298 0.036613204 -0.040978342 -0.005791894
000020 77 3b 98 b9 3c 2c e5 3d 9c d4 dc bc 05 ec e7 bc
       -0.00029036004 0.11190078 -0.026956849 -0.028310785
000030 70 b2 81 bd b3 01 d6 bd 5a f8 9f bc 53 48 93 bc
       -0.063328624 -0.10449543 -0.019527603 -0.017978823
000040 45 b5 41 bb 7c 95 a0 3d f7 68 00 3d 9f 7c 1f 3d
       -0.0029557508 0.07841012 0.031350102 0.038937207
000050 18 fe 22 bd c2 47 ab 3c 32 c6 65 3c 93 c7 a8 bd
       -0.039793104 0.02090824 0.014024304 -0.08241191
000060 c4 d8 d4 bd c2 f4 e1 bd 43 f4 e9 bd 26 fe 9e 3b
       -0.10392907 -0.11033012 -0.11423542 0.004852074
000070 8e 56 8a bd e9 5e 68 bd 02 5b 5e 3d eb c6 14 be
       -0.0675479 -0.05673114 0.05428601 -0.14529006
000080 f8 94 ba bd db 54 dc 3d 8d 6a f3 3d 47 8f d2 3d
       -0.09110445 0.107583724 0.11885557 0.10281234
000090 96 9a bd 3d 87 31 75 3d ab 92 5b bd 8a 25 63 bd
       0.092580006 0.059861686 -0.05360667 -0.055455722
0000a0 9a ce 05 3d 26 30 b5 3d 54 8b b2 3b 17 45 2b 3d
       0.032667734 0.08847074 0.005448738 0.041813936
0000b0 df a6 9f 3d 6f c8 8f bc 5f cb 0b bd c0 b4 3c 3d
       0.077955 -0.017551629 -0.034129497 0.046070814
0000c0 07 80 19 bd 60 26 3e bc 0b 47 ef bc 5f 64 40 3d
       -0.037475612 -0.011605829 -0.02920868 0.04697072
0000d0 4f 22 b4 3d 43 56 4c 3d bd 10 d1 bd c3 c1 c8 3c
       0.08795606 0.049886953 -0.10208271 0.024506455
0000e0 80 22 d9 bb 1d f5 6f bd d6 cb 63 bd 0b d1 f3 3c
       -0.006626427 -0.058583368 -0.055614315 0.029762765
0000f0 3f 91 1f 3d 78 99 b0 3d 49 66 7b bc ce 14 ac 3d
       0.038956877 0.08623022 -0.015344211 0.08402406
000100 b9 90 37 bd fc 40 b5 3d 7b 75 ec bb 99 2e bb 3d
       -0.044815753 0.088502854 -0.007216153 0.09139747
000110 03 cc 98 bd c1 7a a3 3d 93 19 f9 bd d3 d1 8c bc
       -0.07460787 0.07982398 -0.12163081 -0.017189896
000120 0a fb c3 bd 48 36 e3 ba 69 f2 67 bd fe bb 6a bd
       -0.09569366 -0.0017334903 -0.056627665 -0.05730819
000130 5d 31 15 3d c4 5f 01 be 64 fa de 3c b4 4e 1d 3d
       0.03642403 -0.12634188 0.027219005 0.038405135
000140 db 75 cc bd df 3d 1e 3e f5 cc e8 3d 88 68 6d bd
       -0.09983417 0.1545329 0.113672175 -0.057961017
000150 45 0d 6e bd 65 d6 dd bd 18 4e c8 3d ed 41 b6 bd
       -0.058118124 -0.10831908 0.0978052 -0.08899293
000160 4e b4 17 bd 9f f7 f2 3d bf 9b 8d bc bd 87 62 3d
       -0.037037186 0.11863636 -0.01728618 0.05530523
000170 be 6b bb bd 2c 0e 2f bd 80 54 cd 39 d5 00 89 3d
       -0.091514096 -0.042738125 0.00039163604 0.06689612
000180 fb 81 19 bd c1 32 d0 3d ef 92 40 3d f9 b3 85 3d
       -0.037477475 0.101659305 0.047015127 0.06528468
000190 ec a9 35 bd 8e dc 38 bd 76 cb 7e bd 07 71 94 3d
       -0.044351503 -0.045132212 -0.062205754 0.07248121
0001a0 48 ed a3 bc 68 d6 09 3d b0 ab db 3d dc 54 86 3a
       -0.020010605 0.03365174 0.10726106 0.0010248679
0001b0 46 40 ef 3d d0 35 9e bd 09 86 5d bd 8e 47 a1 3d
       0.11682181 -0.07725108 -0.054082904 0.07874976
0001c0 06 a1 d9 bd 30 5e 8c bd 0d d8 bb bc 06 34 58 3d
       -0.10626416 -0.06853902 -0.02293017 0.05278399
0001d0 94 31 82 bc c0 64 1c bd e9 bc 40 3d e6 83 d1 3d
       -0.015892781 -0.03818202 0.04705516 0.10230236
0001e0 60 61 37 bc e4 4c d7 bb 9e ca 0d 3e e4 7e 72 3d
       -0.01119265 -0.0065704454 0.13846824 0.059203044
0001f0 11 ff 8a 3d 99 e5 25 be c5 01 69 bd f5 57 c3 bc
       0.06786931 -0.16200866 -0.056886453 -0.023845652
000200 b8 45 5c 3c 2f 7d 49 3c 31 30 61 bd 07 ef a6 bd
       0.013444357 0.0122979125 -0.0549776 -0.081510596
000210 8b ab 89 3d 93 0a 72 3c 1c e5 73 3d d5 86 8e 3b
       0.06722172 0.014773029 0.059544668 0.0043495693
000220 4a bd cf 3d d9 42 7f 3d 55 c9 87 3d fd 32 c2 bd
       0.10143526 0.06231961 0.06630198 -0.094823815
000230 80 79 14 3d 59 5e ea bb 7f cf 39 bd 4d a1 f6 3c
       0.036248684 -0.0071523604 -0.0453639 0.030106211
000240 26 bf 94 3d 25 09 2a 3d c4 b9 1f 3d c5 e9 84 3d
       0.07263021 0.041512627 0.03899552 0.064899005
000250 55 0a 68 bc 26 71 ee bd 0e bd ec 3c a8 28 54 3b
       -0.01416262 -0.11642675 0.028898742 0.0032372866
000260 90 a3 ca bd fe de 00 bd 25 39 80 bd 6e c9 18 bd
       -0.09894478 -0.031462662 -0.062608995 -0.037301473
000270 5c 7b f4 bd 6e c4 85 bc 49 26 d7 bd b7 71 92 3c
       -0.119375914 -0.016329017 -0.10505349 0.01787649
000280 12 c0 08 be 14 dd 87 bd 60 2f 83 3c de e0 b2 bd
       -0.13354519 -0.06633964 0.016013801 -0.08734296
000290 3e 11 81 3d b6 a6 29 3d a1 0b 91 bc 74 db 6c bd
       0.06302117 0.041418754 -0.01770574 -0.057826474
0002a0 aa 81 c0 3d 56 11 ea bb cb 6c b1 bc a2 b0 cb 3b
       0.093997315 -0.00714318 -0.021658322 0.0062161246
0002b0 4c 21 35 bd e1 bb 26 3d ef ec 87 3b c5 4e 8e bd
       -0.044221207 0.04070652 0.0041481177 -0.06948618
0002c0 9c e3 b4 3d cb 71 24 bb ad c4 18 bd df 61 ad bd
       0.088324755 -0.002509224 -0.03729694 -0.08465933
0002d0 92 18 f4 3b 2f 96 94 bc d1 06 ac 3d 10 89 c7 3d
       0.007449218 -0.01813802 0.083997376 0.097429395
0002e0 0a bf 3c 3d 61 7d 84 3d 32 d0 23 3d bd cd 8e 3c
       0.046080627 0.06469227 0.039993472 0.017432088
0002f0 3e 74 94 3d 01 0d ea bc ba e0 68 3d e1 51 68 3d
       0.07248734 -0.028570654 0.05685494 0.05671871
000300 cc 49 91 bd 18 16 67 bd e6 f7 60 3c 16 9b 57 3d
       -0.07094154 -0.056417555 0.013730979 0.052638136
000310 13 05 43 3c 16 08 31 3c e5 dd d1 3c 9b 76 e3 bc
       0.011903065 0.0108051505 0.025618503 -0.027766516
000320 92 21 08 bc a4 07 93 bd 89 1f 08 bc 87 18 8c bd
       -0.008308785 -0.07179192 -0.0083083 -0.06840616
000330 1c 37 f4 3d 69 75 93 3b 5c fb b7 3d 90 ed 73 bd
       0.11924574 0.0045000804 0.0898349 -0.05955273
000340 fe cf 75 3d a5 89 b0 39 5b 8c ad 3d f4 96 aa bd
       0.06001281 0.0003367189 0.08474036 -0.08329573
000350 55 6a 64 bc 76 20 c6 bc 29 9b e8 bc 83 3f 97 3d
       -0.013941367 -0.0241854 -0.028394299 0.07385161
000360 bc 96 02 3d 70 81 67 3d 45 eb e4 bd ca c1 c9 3c
       0.031882033 0.056519926 -0.111776866 0.024628539
000370 2f 0c 6c bc a4 24 6a 3b 1c eb 69 3d f5 a4 7d 3d
       -0.014407202 0.0035727406 0.057108983 0.061924893
000380 e1 76 36 bc e6 20 98 3d 0f 81 42 3e 5a 93 5b 3d
       -0.011136741 0.0742815 0.18994544 0.053607322
000390 ab 0a 03 bd dc 79 5b bd e6 2a 24 bc 62 9c 00 3c
       -0.031992596 -0.05358301 -0.010019993 0.007849785
0003a0 8c d6 25 bd 9a 5d 38 3d bb 92 e4 3c 77 09 5e bc
       -0.04048781 0.04501114 0.027901998 -0.013552061
0003b0 07 12 66 3d 3e 37 92 3d c1 84 2b bd 74 13 a7 bc
       0.056169536 0.07139443 -0.04187465 -0.020395018
0003c0 1f 8a 0f 3d 33 ef ea bd 03 e6 2d 3d b1 db 10 bd
       0.035043832 -0.11471405 0.042455684 -0.035365764
0003d0 9f be 73 bd c1 84 59 bd 38 0c 45 3c 7a 57 ea bc
       -0.059507962 -0.05310512 0.012026839 -0.028606165
0003e0 94 b5 dc bd 40 32 a9 bd 04 38 ef bb db bc ea 3a
       -0.10776821 -0.082615376 -0.0073003788 0.0017909067
0003f0 9e cb e6 3c 76 96 8e bb 68 ec af bd a1 09 e3 3d
       0.028173264 -0.0043514324 -0.08590013 0.11085821

linear.bias f4 [2]
000000 eb f5 0a 3d a4 8f ff 3c
       0.033925932 0.031196423
