ReverseAttentionStyleTransfer/model/yelp_attn_r.pth (torch, 202399 bytes, 3 tensors)

W_k.weight f4 [100, 500]
000000 b4 29 90 3d 3e d3 4f 3e ba 70 13 3e d6 5a 82 bc
       0.07039204 0.20295426 0.1439847 -0.015912455
000010 7b 77 c5 3d 9b 11 43 bc 61 a2 6b 3c a0 ae 40 3e
       0.0964193 -0.011906053 0.014381976 0.18816614
000020 98 3d dc 3b 75 d7 48 3d a9 d2 96 3e 4b 59 37 bd
       0.0067212097 0.0490336 0.29457596 -0.04476289
000030 09 13 49 3c d8 d3 07 3e 18 fc 8f bd 96 54 df bd
       0.012272605 0.13264406 -0.07030505 -0.10904805
000040 9b c8 b8 3c 04 ee da bd 8c 35 a4 3d 24 98 9b 3c
       0.022556594 -0.10689929 0.08018026 0.018993445
000050 a3 17 5e bd 75 f5 08 bc d8 91 ee bc 46 f0 dc 3c
       -0.05422176 -0.008359303 -0.029122278 0.02697004
000060 dd 45 60 3c 06 29 b8 bd a7 73 16 bd b6 d1 57 3d
       0.013688532 -0.089921996 -0.03673139 0.05269023
000070 db 97 7f bc d8 e9 dd 3d 66 01 25 3c 5c 65 83 3c
       -0.01560017 0.10835618 0.010071134 0.016039543
000080 6b ae f4 bc 13 1a c9 3c d8 60 85 3d 30 28 d1 3d
       -0.029868325 0.024548566 0.06512612 0.10212743
000090 65 b8 88 3d 45 72 8a 3e 37 51 83 bd 9d 6c ff bc
       0.066757955 0.27040306 -0.06411975 -0.03117972
0000a0 12 b6 ce 3d 98 cb 8a bc cc c2 c2 bc 6d e6 7e 3d
       0.10093321 -0.016942784 -0.023774527 0.06223147
0000b0 c2 57 ad 3d 8f be 62 3d 58 5d af 3a 6b 1c f4 bd
       0.08464004 0.055357512 0.0013379259 -0.11919483
0000c0 b1 af 91 3d ae 67 2f bc 9d 89 11 be eb 5b ff bd
       0.071135886 -0.0107058715 -0.14212652 -0.12468704
0000d0 46 e0 7e bd fb c3 00 3d 54 c6 c9 3a 91 10 fb bd
       -0.062225603 0.0314369 0.0015394189 -0.12259019
0000e0 4e 5f 99 bd cc 25 d3 3d 68 28 24 bd d7 8f 08 be
       -0.07488881 0.103099436 -0.040077597 -0.1333612
0000f0 5c 72 c5 bc ee ba 0b be 88 9c 7b bc e9 d5 1c bc
       -0.024102382 -0.13645527 -0.015357144 -0.0095724845
000100 21 27 54 bd 24 8b b9 bb 0d 04 4b 3d 7d 4b 18 3e
       -0.05179513 -0.005662339 0.04956441 0.14872546
000110 77 bc 9a 3d b8 d1 a8 3d 56 f3 47 3d e5 cb 0c be
       0.07555478 0.08243126 0.048816048 -0.13749655
000120 37 9e 83 bd 28 8d 4a bc d0 c6 af bd db 63 18 3b
       -0.064266615 -0.012362756 -0.08582842 0.0023252878
000130 a0 63 51 bd bf 14 db 3c dc ca 22 be 52 b7 3d 3d
       -0.0511204 0.026743291 -0.15897697 0.046317406
000140 06 d6 8c 3c e3 29 e4 bd 03 1f ce 3c ad d5 2b 3d
       0.017191898 -0.11140802 0.025161272 0.041951824
000150 6c af 6a bd 9d 50 20 bd 10 1f 6c bd 97 08 ec 3d
       -0.0572962 -0.03913938 -0.05764681 0.11525076
000160 7b d4 3f bd 4f 4a df 3d 19 e5 ad bd 3b 1e 02 3e
       -0.046833497 0.10902845 -0.084909625 0.12706845
000170 68 3c 20 be 6e ac ff bc 9c 6e 0e bd 2c 4f 88 bd
       -0.15648043 -0.03121015 -0.034773454 -0.06655726
000180 95 03 34 3d a1 dd 44 bd 66 b7 88 bd fe 1d 95 bd
       0.04394873 -0.048062924 -0.066756055 -0.07281111
000190 13 c7 b6 bd 9d f3 89 3e 0e 4c b1 3c 1b 04 b3 3d
       -0.08924689 0.26943675 0.021642711 0.087410174
0001a0 83 a7 50 3c 4a 5b 23 3e bf bd 10 3c 57 43 d9 3c
       0.01273525 0.15952793 0.0088343015 0.026521368
0001b0 3e 1f 84 bd ee 77 25 be 8c b0 0f bd b1 cc 14 be
       -0.064512715 -0.16159031 -0.035080478 -0.14531209
0001c0 b3 86 1c 3d 05 9b fb 3d 1c 98 26 bd 83 85 d7 3d
       0.038214397 0.12285427 -0.040672407 0.10523512
0001d0 a1 51 d4 3a b9 f2 15 3e 9d 6a 14 be b1 1f eb 3b
       0.0016198644 0.14643373 -0.14493795 0.007175409
0001e0 f2 ff 2e 3e c5 29 1d bc b8 3f 11 3d 88 72 ab 3d
       0.17089823 -0.009592478 0.035461158 0.083714545
0001f0 98 80 0b 3e 76 7a f9 bc 06 5c 1f 39 00 ad 4e bd
       0.13623273 -0.030453902 0.00015197703 -0.050457954
000200 e1 a8 b9 bc b9 9b f8 3c 4c 27 4b 3d db 91 45 be
       -0.022663536 0.030347692 0.049598023 -0.1929392
000210 77 7e 63 bd 1d d1 d4 3b 5a 06 86 bc 67 91 99 bb
       -0.05554053 0.006494655 -0.01636045 -0.0046865228
000220 60 b4 8a bd b3 0a f4 bd 0d d3 05 bd 89 71 3f bc
       -0.06772685 -0.11916103 -0.032671977 -0.011684784
000230 cc d6 8a bd 29 4e 9b 3d 70 00 5f 3e 21 3c 78 bc
       -0.067792505 0.07583267 0.2177751 -0.015151055
000240 ee 6b 0c 3e e9 5f 0d be ec dc 4a 3d c4 25 f9 3c
       0.13713047 -0.13806118 0.049527094 0.030413516
000250 3b 5a 96 3d 79 f3 87 3d 01 5e 5e 3d cb 32 e3 bc
       0.07341429 0.066382356 0.054288868 -0.02773418
000260 2a ed 47 3e ee 2d 7e be 45 b5 5f 3d c3 8f 16 3d
       0.19524065 -0.24822208 0.05461623 0.036758196
000270 a5 c5 08 be fd be 6b bb be c7 07 3d 76 bc 85 3e
       -0.13356645 -0.0035971992 0.033149473 0.26120347
000280 4b ed 19 bd a0 bd 04 bc 60 c7 f9 3d c1 22 d0 3d
       -0.037579816 -0.008101851 0.12196231 0.10162879
000290 75 26 8a bd e0 6d a2 3d b6 76 ed bb 78 e4 4d 3d
       -0.06745616 0.07931113 -0.0072468175 0.050266713
0002a0 56 fc 0d 3e 1f 92 a3 3d e4 76 00 3e 81 a2 48 be
       0.1386579 0.07986855 0.12545353 -0.1959324
0002b0 a8 46 00 bd fa 85 10 3d 5a 8f 8f bc ce eb 8d bd
       -0.031317383 0.03528402 -0.01752441 -0.06929742
0002c0 1a 71 b4 3d 87 e2 03 3c 7a 07 10 bb 02 a6 58 3d
       0.08810635 0.008049614 -0.0021977113 0.052892692
0002d0 6a 9d 06 3c de 58 a1 3c b0 68 37 3e 53 95 e5 3d
       0.008216241 0.019695695 0.17911029 0.11210122
0002e0 08 93 f0 3c dd e3 a2 bd bd 40 01 3d 29 cd 12 bc
       0.029366985 -0.07953618 0.03155588 -0.008960047
0002f0 ed ce 11 3e 32 31 5b 3d fd b0 4c 3b 5a 8a 30 3e
       0.14239092 0.053513713 0.0031233423 0.17240277
000300 89 7c 73 3e f3 72 b6 bd 69 83 61 be ae b2 64 be
       0.23777975 -0.089086436 -0.22022785 -0.22333786
000310 a1 d7 7f 3e 95 b9 99 3d 72 96 3d be 08 85 c4 3d
       0.249846 0.075061 -0.18514422 0.09595686
000320 3f fa cf bd 29 b3 95 3d 02 90 7e 3d f1 d0 a0 3d
       -0.101551525 0.07309563 0.062149055 0.078523524
000330 aa aa 32 3e 36 8d 05 3e f4 eb 4d 3d 17 d2 76 3d
       0.17447916 0.13042149 0.05027385 0.06025895
000340 46 de 1a bd 03 cb 04 3e 47 e5 ca 3d 4f 1f f5 bd
       -0.037809633 0.12968068 0.099070124 -0.11968862
000350 8c 51 b4 3c 82 1a 0c 3d 5d 5a 40 bd 32 59 d9 3d
       0.02201154 0.034204967 -0.046961177 0.10612716
000360 e5 91 4b be f2 2a c6 bd fb e1 8c bc 53 c9 b2 3c
       -0.19879873 -0.0967616 -0.0171976 0.021824514
000370 59 52 32 3c 02 84 63 bd 66 77 a6 3d 8e 01 26 3e
       0.010883891 -0.055545814 0.08128242 0.1621153
000380 19 bd 12 bd e0 d8 e5 bd 82 56 60 be 41 45 02 3d
       -0.03582487 -0.11223006 -0.21908 0.031804327
000390 dd 2c a5 3a e9 d1 1d bd ea 7f 7e bd 38 cc eb b9
       0.0012601871 -0.038530264 -0.062133707 -0.00044974848
0003a0 e1 6c 8a bd 9a 50 b8 3d e6 7a 6e bd 11 e9 26 be
       -0.06759048 0.089997485 -0.058222674 -0.16299845
0003b0 64 d5 5c 3d ce d9 cd 3d 8d fb ef 3a 45 cf af bd
       0.053914443 0.100513086 0.0018309221 -0.085844554
0003c0 46 d6 00 bd bf da 3e bd ef d2 63 3e 0f dd 5e 3e
       -0.031454347 -0.04659533 0.22248434 0.21764015
0003d0 e7 a7 39 3e b0 92 05 3d 7c e2 42 3e 33 7b be bb
       0.18130456 0.032610595 0.1903171 -0.0058130263
0003e0 4e da 66 3d 7c 6f 1f 3e ff c2 3e bd 02 97 87 bd
       0.056360535 0.15569872 -0.04657268 -0.06620599
0003f0 cf 56 04 3e 58 43 8d bc d6 83 3c be 64 39 66 3d
       0.1292374 -0.017244026 -0.18409666 0.056207076

W_k.bias f4 [100]
000000 9c cd b2 bd e0 68 04 3e 84 b9 93 bd 63 db 74 bd
       -0.08730623 0.12930632 -0.07213119 -0.059779536
000010 59 be 1d 3e f9 f2 b3 bd cf 29 39 be 13 bc f9 bd
       0.15404643 -0.08786578 -0.18082355 -0.121940754
000020 4a aa 25 3e d0 c4 5a be 52 78 9d 3d 4f c0 25 3c
       0.16178241 -0.2136414 0.07688965 0.010116651
000030 1d 92 80 bd 4e e8 05 be 17 8b b0 bd 8f 82 9e 3d
       -0.06277869 -0.13076898 -0.08620279 0.07739746
000040 48 6a 74 bd f8 1c 2e 3d 8f c7 d5 ba 7c 5e 20 3e
       -0.05967167 0.042508096 -0.0016310083 0.15661043
000050 48 56 8d 3d 28 47 df bd 67 b5 9b 3d d8 8a ea 3d
       0.069012225 -0.10902244 0.07602959 0.114522636
000060 8b 06 fe 3c b7 c1 ce bd 6d cd d9 bd 8d 0c 94 bb
       0.03100898 -0.10095542 -0.10634885 -0.0045180977
000070 ec 2e d6 3d 80 64 e2 bc 7d d3 39 3e c1 95 55 3c
       0.104581684 -0.027635813 0.18147083 0.013036192
000080 66 b6 46 3e e3 5d 3a 3e 76 26 fa bd 3f dd 0c 3d
       0.19405517 0.18199877 -0.12214367 0.034390684
000090 e8 ea 3f bc 42 22 02 3e e0 b6 19 3e f6 3b d0 3d
       -0.011713721 0.12708381 0.15011168 0.10167687
0000a0 eb df 0d 3e f1 ef 68 3c 1c 65 e7 bd 2d 5d 3a bd
       0.13854949 0.014217363 -0.11298582 -0.045499016
0000b0 f5 88 fa 3d 6c 9a 0a be 90 83 c5 bd b1 08 5e 3e
       0.12233154 -0.1353547 -0.09644234 0.21683003
0000c0 00 33 13 be e8 fe 53 3d 99 e8 3a be 9f a1 47 3c
       -0.14374924 0.05175677 -0.18252791 0.01218453
0000d0 6c ea 44 3d 7f aa d7 3d 20 01 80 bd d8 8d b6 3e
       0.048075125 0.105305664 -0.062502146 0.35655093
0000e0 53 c8 81 be 1b ea 8c bd 7a 45 34 be a5 c6 37 bd
       -0.25348148 -0.068805896 -0.17604628 -0.044867177
0000f0 17 7a 1b be 51 1a 3e 3d 97 db b1 3d 17 e6 6c bd
       -0.15183292 0.046411816 0.086844616 -0.05783662
000100 b6 8d ca bd c6 ff 83 bb 4c 93 a1 bd 59 16 63 bc
       -0.098903105 -0.0040282933 -0.07889423 -0.013860309
000110 c5 7f 0e be ac 3e c0 3b 40 8b ab 3c ee 1d 89 3c
       -0.13915928 0.005866846 0.020940423 0.016737904
000120 34 08 22 be 44 15 92 bd 26 78 45 be fe 56 b0 bc
       -0.15823442 -0.07132962 -0.19284114 -0.021525856
000130 1b c9 47 3d 53 b6 d5 3d a5 f7 c6 3d 91 a1 e2 bd
       0.048775773 0.10435166 0.09715203 -0.110659726
000140 5f bc 94 bd f2 70 37 3d 0f fc d0 3d ee 20 8a bd
       -0.072624914 0.044785447 0.10204326 -0.06744562
000150 bb f1 f0 3c e5 cf 2d ba bd 70 90 3d 6e e7 a5 3d
       0.029412141 -0.0006630405 0.07052753 0.08100782
000160 b7 d5 0f 3e af ae 08 bc bf da 47 3e 20 4a 80 3d
       0.1404637 -0.008342429 0.19517039 0.06264138
000170 a2 39 32 3d 16 7b 1d bd 13 6f c6 bd ec 23 55 be
       0.043511994 -0.038447462 -0.096891545 -0.20814484
000180 b4 17 0f bd 8c 70 48 3d f8 d2 bf bd 30 c5 cc bd
       -0.034934714 0.048935458 -0.09366411 -0.09998548

v.weight f4 [1, 100]
000000 2e 1e 66 3d bd 80 32 bd f3 1c 25 bd ac 18 2b 3d
       0.056181125 -0.043579806 -0.04031081 0.041771576
000010 e7 01 02 bd f7 a3 d6 3c 96 30 05 3d 15 92 47 3d
       -0.031740095 0.026201231 0.03251704 0.0487233
000020 f5 0e e1 bc 09 73 0a 3d 4a 02 19 bd fc b7 19 3d
       -0.027472952 0.033801112 -0.0373557 0.037528977
000030 70 ed 05 3d 43 ba 3f 3d 7f bd 37 bd 1e 09 bf 3c
       0.03269714 0.046808492 -0.044858452 0.023319777
000040 0b 28 05 3d 58 08 e4 bc 5f 1f 04 bd 4e 32 28 bd
       0.03250889 -0.02783601 -0.03225648 -0.0410636
000050 3c 42 b2 bc 77 df 0d 3d 89 c1 ff bc 50 cb 16 bd
       -0.021760099 0.03463694 -0.031220214 -0.036814988
000060 e3 23 24 bd ff cb 2a 3d 2f 3a ca 3c 3b 90 22 3d
       -0.040073287 0.041698452 0.024685947 0.03968833
000070 51 ef 0a bd 2d 98 a2 3c 69 12 19 bd 2f 28 07 bd
       -0.033919636 0.019847954 -0.037371073 -0.032997306
000080 c8 58 0b 3d 06 9a ff bc 5c ae 7e 3d 46 03 6a 3d
       0.034020215 -0.031201374 0.062178 0.057132028
000090 8d 32 51 bd 73 e6 dc bc 82 be 19 bd 2a 8e 2f bd
       -0.0510736 -0.026965356 -0.037535198 -0.042860188
0000a0 58 38 0f bd e9 69 33 3d c2 69 55 3d b9 d0 b1 bc
       -0.034965843 0.043802176 0.05210281 -0.021705972
0000b0 8f 1e 59 bd b7 93 bb 3c 4a 03 37 3d 17 a7 4c bd
       -0.05300766 0.022897584 0.04468087 -0.049964037
0000c0 24 a3 3d 3d b3 a2 dd bc fa 47 17 bd 73 81 3d bd
       0.04629816 -0.02705512 -0.036933877 -0.04626603
0000d0 e4 f6 14 bd 89 ff 2b bd 28 b6 1e 3d cb f1 89 bd
       -0.036368266 -0.041991744 0.038747936 -0.067355715
0000e0 32 ca 65 3d a8 30 83 3c f0 d6 2f 3d 07 dc e1 bc
       0.05610103 0.016014412 0.04292959 -0.027570738
0000f0 c0 8f 3b 3d 3c c7 51 3d f0 10 f3 bc 4a 27 af 3c
       0.045791388 0.051215395 -0.029671162 0.02138104
000100 8a 64 a5 bc a3 fa e9 3c e4 3b 5e 3d 15 0e f0 bc
       -0.020189542 0.028561896 0.054256335 -0.02930359
000110 a3 e3 11 3d f7 6d 06 bd 74 68 53 bd 40 73 1b bd
       0.035617482 -0.032819714 -0.051613286 -0.037951708
000120 9d 8c 78 3d 12 0d 7c 3d d3 22 27 3d 8f 7b 81 3c
       0.060680974 0.061535902 0.040804695 0.015805988
000130 b5 55 f0 3c 34 11 6f bd b2 5d d8 3c 33 e5 8b 3c
       0.029337743 -0.058366016 0.026411865 0.017077064
000140 f4 95 08 3d e1 b2 1d bd ca 6f 29 bd db 23 6d bd
       0.03334613 -0.03850067 -0.041366376 -0.057895523
000150 e0 c3 03 bd 1b 68 09 3d 58 f7 ce bc d6 50 c9 bc
       -0.032169223 0.03354655 -0.025264427 -0.024574678
000160 e3 e2 fd bc cf 62 32 bd c5 70 0e bd d3 26 81 bd
       -0.030991977 -0.043551262 -0.034775514 -0.06306233
000170 e7 de 91 bc b8 e4 c3 3c 70 c1 3a bd ef ce 12 3d
       -0.017806483 0.023912773 -0.045594633 0.03584188
000180 f0 67 17 bd 6e 18 51 bd 07 c2 10 bd 03 55 14 3d
       -0.036964357 -0.05104869 -0.03534129 0.036213886
