ReverseAttentionStyleTransfer/model/yelp_senti_cls.pth (torch, 5095 bytes, 2 tensors)

linear.weight f4 [2, 500]
0	0xbd8d54b4	-0.069009215
1	0xbe055a69	-0.1302277
2	0xbc9b0d7c	-0.018927328
3	0x3cdbadce	0.026816275
4	0x3df52a18	0.11970919
5	0xbd8e627e	-0.0695238
6	0x3e048f76	0.12945351
7	0x3dcf990c	0.10136613
8	0xbbe39fb2	-0.0069465274
9	0x3d95dbed	0.07317338
10	0x3d1a4797	0.03766593
11	0x3b29dcc2	0.0025918935
12	0x3d742eec	0.05961506
13	0xbd850ed2	-0.064969674
14	0x3e122300	0.14271164
15	0xbd3bc74d	-0.045844365
16	0x3d678421	0.056522492
17	0x3d9f7167	0.07785302
18	0x3d4fc08d	0.05072074
19	0xbd406e1a	-0.04698
20	0x3db04a86	0.08607964
21	0x3d61f470	0.055164754
22	0x3dbcd1be	0.09219693
23	0xba03ddcc	-0.0005030304
24	0xbdccd870	-0.1000222
25	0xbdfbde7c	-0.12298295
26	0xbdf9e971	-0.122027285
27	0xbd7d3f37	-0.061827864
28	0xbdc313f8	-0.09525293
29	0xbd65d692	-0.056112833
30	0x3daca606	0.08430104
31	0x3dcea735	0.10090486
32	0x3d3d9045	0.046280164
33	0x3cb7df92	0.022445474
34	0x3d17079c	0.03687249
35	0xbcce4cde	-0.025183138
36	0x3d4b9b9c	0.049708948
37	0xbdab2209	-0.08356101
38	0xbd9632b1	-0.07333887
39	0x3d348b96	0.044078432
40	0x3d4c1dcd	0.049833108
41	0xbda6bcaf	-0.08141457
42	0x3d6fce09	0.0585461
43	0xbe1ae0f9	-0.15124883
44	0x3df1c96d	0.11805997
45	0xbd970755	-0.07374445
46	0xbdc98f05	-0.09841732
47	0xbcc985c3	-0.024599915
48	0x3d914f73	0.07095232
49	0x3dd7c8ae	0.105363235
50	0x3dba6b84	0.09102538
51	0x3b25882b	0.0025258164
52	0x3d21c763	0.03949679
53	0x3b5c26b5	0.0033592407
54	0x3dd32516	0.10309808
55	0x3d8ee579	0.06977362
56	0x3daaed48	0.08346039
57	0xbbdb134f	-0.0066856514
58	0x3dbb2df0	0.09139621
59	0x3da514de	0.08060621
60	0x3d20d5d0	0.039266407
61	0xbda5668e	-0.080762014
62	0xbdf4445a	-0.119270995
63	0xbd0dbe4d	-0.034605313
64	0xbd879eba	-0.066220716
65	0xbd8f5a32	-0.06999625
66	0x3d69789c	0.056999788
67	0x3d9a9f58	0.07549924
68	0xbcbc3efa	-0.022979248
69	0xbe1044ec	-0.14088792
70	0x3d682ae2	0.05668152
71	0xbd3161fd	-0.04330634
72	0xbd3bbecb	-0.04583625
73	0xbcc5d11e	-0.024147566
74	0xbdf22de6	-0.11825161
75	0xbda2e386	-0.07953553
76	0x3de82c08	0.11336523
77	0xbd9d8a2a	-0.07692368
78	0xbd8785ca	-0.06617315
79	0x3de6bf32	0.11266936
80	0x3df56be5	0.1198347
81	0x3e0210a2	0.12701657
82	0x3d54105e	0.05177342
83	0xbba0ca56	-0.004906933
84	0xbd6bbac5	-0.057551164
85	0xbc7cf2d0	-0.01543875
86	0x3db84a92	0.08998598
87	0x3d12697b	0.035745125
88	0x3dd1f49e	0.10251735
89	0xbda00e8b	-0.07815274
90	0x3d19a9b4	0.037515357
91	0x3dcd36c3	0.100202106
92	0xbd08d90c	-0.033410117
93	0xbc3cf30f	-0.011532559
94	0xbe114198	-0.14185178
95	0x3e15370f	0.14571784
96	0x3d8ffec2	0.07031013
97	0xbe382193	-0.17981558
98	0x3d95a538	0.073069036
99	0xba921a03	-0.0011146668
100	0xbcdff356	-0.027337711
101	0x3d88a5c6	0.06672244
102	0x3d6a617f	0.057221886
103	0xbd2fd5b6	-0.04292842
104	0x3dd7a89d	0.10530207
105	0x3cc35062	0.02384204
106	0x3d63d45b	0.05562244
107	0xbdc4cbc3	-0.09609177
108	0x3cdee1ac	0.027207218
109	0x3ca52258	0.020157978
110	0x3d5752b5	0.05256911
111	0xbbb96e09	-0.005658869
112	0x3d43757e	0.04771947
113	0x3dcb7423	0.09934261
114	0xbd069950	-0.032861054
115	0x3c205307	0.00978542
116	0xbb1cbe40	-0.0023917109
117	0x3d684d02	0.056714065
118	0x3db74d4e	0.089502916
119	0x3cbbb9e0	0.02291578
120	0x3d014fbf	0.031570192
121	0xbcffdae3	-0.031232303
122	0x3e02c32d	0.12769766
123	0x3b4c89a9	0.0031209982
124	0x3d2b6c4d	0.04185133
125	0x3e13e418	0.1444248
126	0x3dc1cd05	0.094629325
127	0xbd89a7ff	-0.06721496
128	0x3d83fb6e	0.06444441
129	0xbacf7945	-0.0015828988
130	0xbdc4d772	-0.096114054
131	0x3de01496	0.109414265
132	0x3d03fe5a	0.03222499
133	0xbd506898	-0.050881
134	0x3df29591	0.11844934
135	0xbd8d2447	-0.06891685
136	0xbd146449	-0.036228452
137	0x3d002f3d	0.03129505
138	0x3dfc4c21	0.12319208
139	0x3dbd2fb5	0.09237615
140	0x3d8552c5	0.06509928
141	0x3d902ef1	0.07040203
142	0xbd4b9a53	-0.049707722
143	0xbdc86d78	-0.097865045
144	0x3dce8d7e	0.10085581
145	0x3d074124	0.033021107
146	0xbceda2a2	-0.029008213
147	0xbd3b6e1c	-0.045759305
148	0x3c92c33c	0.01791536
149	0x3cbccc75	0.023046711
150	0xbd9007c3	-0.070327304
151	0xbde50bb3	-0.11183872
152	0x3cfd595c	0.030926399
153	0xbda01a77	-0.07817548
154	0xbc40e4ed	-0.01177333
155	0x3dee5cb1	0.11638773
156	0x3dab045b	0.0835044
157	0xbdb25c19	-0.087089725
158	0xbda08ea4	-0.078397065
159	0x3ca81c28	0.020521238
160	0xbe096728	-0.13418257
161	0xbd3bde0c	-0.045866057
162	0x3dc15eea	0.094419315
163	0xbe142634	-0.14467698
164	0xbd0d7f6e	-0.034545355
165	0x3dca9f52	0.09893669
166	0xbe0c4078	-0.13696468
167	0x3d792225	0.06082358
168	0x3d4c8216	0.049928747
169	0xbd026a13	-0.03183944
170	0xbdebf324	-0.11520985
171	0xbde5a4c3	-0.112130664
172	0x3d806d52	0.06270851
173	0xbd6d20a8	-0.05789247
174	0x3ba03eda	0.004890305
175	0x3d9a9a9f	0.07549023
176	0x3d3a69fc	0.04551123
177	0xbd36c721	-0.044623498
178	0x3d4f2458	0.05057177
179	0x3e153f1f	0.1457486
180	0xbdd66f47	-0.10470443
181	0xbdb9d6f9	-0.09074206
182	0x3d8b1c34	0.06792489
183	0xbb953f03	-0.0045546307
184	0x3d817767	0.06321602
185	0x3ddfa4b2	0.10920085
186	0x3d2472f9	0.04014871
187	0xbde97d2b	-0.11400827
188	0x3dac5305	0.08414272
189	0x3d332765	0.04373874
190	0xbc0849b0	-0.00831835
191	0x3c6589b3	0.014009881
192	0xbbfb206c	-0.007663777
193	0xbc297713	-0.010343331
194	0x3dc9ad58	0.09847516
195	0x3cdbc1de	0.026825842
196	0xba805ffd	-0.0009794232
197	0xbdb82861	-0.08992077
198	0x3e191525	0.14949472
199	0x3d742ea7	0.059614804
200	0x3d0fe9fc	0.035135254
201	0x3da38e8d	0.07986174
202	0x3c61d4ce	0.013783647
203	0x3dcddb2c	0.10051569
204	0x3c3bdfab	0.011466901
205	0x3d555ead	0.052092243
206	0x3ca47d08	0.02007915
207	0x3d84439e	0.064582095
208	0xbd83f328	-0.06442863
209	0xbda59227	-0.08084517
210	0x3da903ef	0.082527034
211	0xbd8cd333	-0.068762206
212	0x3cd7ddd6	0.026350897
213	0x3c2b9430	0.010472342
214	0x3d8e75a5	0.06956033
215	0x3dc519cb	0.0962406
216	0x3dba9793	0.09110942
217	0xbd149af1	-0.036280576
218	0x3c4361ee	0.011925204
219	0x3d4575e3	0.04820813
220	0xbd8b87df	-0.06813025
221	0xbd8eda6d	-0.06975255
222	0x3dd251f7	0.1026954
223	0x3d91954e	0.07108556
224	0x3bf88fb9	0.0075854925
225	0xbe10d3a6	-0.14143237
226	0x3d416c23	0.047222268
227	0x3e1cb0e2	0.1530185
228	0x3df44d40	0.11928797
229	0x3dda6349	0.106634684
230	0x3de689af	0.1125673
231	0x3cdd8489	0.027040737
232	0xbdf3fa7b	-0.1191301
233	0x3da6b5d6	0.08140151
234	0xbd530e52	-0.05152733
235	0x3d4167a8	0.047217995
236	0xbd2fd6cb	-0.042929452
237	0x3e03e802	0.12881473
238	0x3e055c18	0.13023412
239	0xbb61ae86	-0.00344363
240	0xbdc2d504	-0.09513286
241	0xbd9817b7	-0.07426398
242	0xbde68209	-0.11255271
243	0x3de53e98	0.111935794
244	0xbdaa2f5f	-0.083098166
245	0xbd2ad9c8	-0.0417116
246	0xba6fdbff	-0.00091499084
247	0x3dcd0849	0.10011346
248	0x3d9cced6	0.07656638
249	0x3c869e46	0.016432893
250	0xbd026903	-0.03183843
251	0xbe0d4831	-0.1379707
252	0xbdf4056b	-0.11915096
253	0x3de90eac	0.113797516
254	0x3d9ab6d6	0.075544044
255	0xbda53712	-0.080671445

linear.bias f4 [2]
0	0x3b07c85c	0.0020718789
1	0xba567f2c	-0.0008182402
