ReverseAttentionStyleTransfer/model/yelp_senti_r.pth (torch, 5095 bytes, 2 tensors)

linear.weight f4 [2, 500]
00000000: 7426 6dba 5154 febd 99e4 03be 8bc9 303e
00000010: 8343 043d 26b7 d5bd 1600 2fbc 503a a4bd
00000020: 400a 0e3d 2e75 aabd 1117 95bd 9537 afbc
00000030: 1e1a 9d3d d7f3 353d 53f3 e9bd 9b7a 4d3d
00000040: b247 673d 1460 133e 039b 99bd 1c71 003e
00000050: 8ca7 8ebd a809 ff3b c0c7 8abc 0917 643d
00000060: 48f0 3f3d ea3f de3c 2f6b bbbd aec0 8b3d
00000070: 1f1a 3ebd e46a 963d 15fb d4bd cb4b c1bd
00000080: 890d 883d 89dd cebd 3d7e 973d 6125 4c3d
00000090: 420e b3bd c052 91bd 4a16 2fbc b48a 993d
000000a0: e446 8abd a042 a3ba 2561 833d 5925 0cbd
000000b0: 089f 203e e770 d33d 66bb 523d 7ecf ac3b
000000c0: f637 ec3d 7226 bcbd fc47 06be fd26 1e3d
000000d0: e0cd a4bd b1ba f9bd 3d81 0abd 5375 18bd
000000e0: 53e2 b3bd e1ea 9b3d 603c 90bd 926a 7d3d
000000f0: 4b28 87bc 8b98 653d fba6 6a3d 635a b7bb
00000100: e5b9 003e 87d9 04bd 18e8 7fbd 2f42 8abd
00000110: c4bc e1bd 026b cb3d 702e 4a3d f9c7 80bd
00000120: 4b5a e7bd 9462 243c 9442 77bd 70b8 1abe
00000130: 5957 b5bc d231 803c 6b2d a7bd 401e 32bd
00000140: bf77 623d 9dcd babc da34 92bd c1f0 673d
00000150: 1995 03bd d392 863d dc60 e7bd a7f5 cc3b
00000160: dc87 72bd 8cf9 4a3c e126 8a3d cf33 08be
00000170: 5e56 41ba b988 9cbd 3386 bd3c 9f2b 65bd
00000180: 399a ebbd 1850 4f3c a9c4 afbd be39 8d3d
00000190: bd06 bb3d 49bb 47bd 9a53 13bd 92d1 debb
000001a0: 6037 b43d 212e 0dbd cb7e 913d bcdb d33d
000001b0: 57f0 fbbd bff2 03bc f634 193d f34e 683b
000001c0: 2968 92bd c120 09bd a6dd e9bd 3b19 cebc
000001d0: 2c3e 613d 333d 4d39 0ef0 a93d 6da9 edbd
000001e0: 5650 99bd 3c65 043d b6fb a0bc 0ea2 333c
000001f0: 357b 18be ce63 d33d 16b2 ce3d 9541 4bbd
00000200: 2c01 d7bc bf9a 1d3c 3e9e 503c eb62 583d
00000210: c06a 9c3d 2cea c73d a802 f9bd 538f 4c3d
00000220: 4c63 613d 74e8 72bc 91fd d43d 18b3 a4bd
00000230: de57 aa3d 4dca cfbb 8e48 6d3c 209e bc3d
00000240: 4f64 cabd 5842 8a3d b726 ae3d 322e 0abc
00000250: 7c8d 04be f600 933d 5073 c0bd 5d21 123d
00000260: cb20 ca3b 449a 94bd c1dc 0e3e a99c d6bd
00000270: 2ea1 2abd 609c 983c 6a22 db3d 0ae2 9a3d
00000280: 00df 443d 055d ff3d 3bd7 f93c e6d8 a53c
00000290: c274 f3bd 897a cebc 881f 5a3b 8965 debd
000002a0: 6789 273b 0a3e 96bc 13f9 5bbc cc21 a6bc
000002b0: 235d 18bc e3cc a1bd b5a2 953d d234 35ba
000002c0: 2ec5 d03d f8e2 12bd 7550 f1bc 9593 b0bd
000002d0: 4dbb 433d 883e c4bd 5aac bebc d261 3b3c
000002e0: 072b a43d 3d83 bcbc 9a24 f0bb d962 80bd
000002f0: c7f8 adbd 1092 993c 4a1b 82bc 870e da3d
00000300: 1741 b1bd adc9 01bd 95d7 733b 359b 2f3d
00000310: 4f10 50bd 34c9 1ebe 0791 bb3c 4c0a c3bd
00000320: 73ee 6f3a ff25 efbd a300 913d 43d8 a7bd
00000330: a7ae 813d ef83 d8bd 4cb5 6d3d 9090 9dbc
00000340: f1e4 ecbd f8d3 f03d bdc1 5f3d cb43 e5bd
00000350: b219 0a3c dcd0 3ebc c7a9 873c 4982 b33c
00000360: 7a6a 243d 030a a6bd 5646 6a3d 6e7b 7cbd
00000370: 9087 533d 2e1a 07bd e55e a8bd 67ff 9bbd
00000380: 2a2b 60bd 8c1e 793d 744a c7bd 54ea 633d
00000390: e26d 903d ccdd b2bc 791d 073d dc0a 6cbc
000003a0: 66ad 243d aafd 09be fcb7 5d3d 0b60 033d
000003b0: 7529 a0bd 6157 903c 4431 06bd 20ae ff3b
000003c0: d158 ecbd 0485 cb3d 7e6f 8dbd 395e 66bd
000003d0: 3679 0e3c de67 163d fd78 1bbc 52db 92bd
000003e0: b9e1 29bc d221 f03d b635 aa3d fc44 753d
000003f0: 4c27 4b3c 8b27 98bd 42a5 94bb 5dad 07bc
-0.00090465625 -0.12418426 -0.12880172 0.17264383 0.032290947 -0.104353234 -0.010681173 -0.08018935
0.034677744 -0.083231315 -0.0727979 -0.021388808 0.07670997 0.044421997 -0.114233635 0.050165754
0.05646486 0.1439212 -0.07500269 0.12543148 -0.06965551 0.0077831335 -0.016940951 0.05568603
0.04686001 0.027130086 -0.09151303 0.0682386 -0.04641163 0.073446065 -0.103994526 -0.094382845
0.066432066 -0.10100848 0.07397125 0.049840335 -0.08742954 -0.070958614 -0.0106864665 0.07497159
-0.067518026 -0.0012455769 0.06415013 -0.034215305 0.15685666 0.10324269 0.05144825 0.0052737584
0.11534111 -0.0918702 -0.13113397 0.0386114 -0.0804708 -0.12193812 -0.033814657 -0.037221264
-0.08783402 0.07613159 -0.070427656 0.06186921 -0.016498705 0.05605368 0.05728815 -0.0055954917
0.12570913 -0.032434013 -0.0624772 -0.06750905 -0.11022332 0.099325195 0.049360693 -0.06288142
-0.11296519 0.0100332685 -0.06036623 -0.1510942 -0.022136377 0.015648756 -0.0816296 -0.04348588
0.05528998 -0.022803122 -0.07138987 0.056626085 -0.032124612 0.06570973 -0.11297771 0.00625487
-0.059211597 0.012388598 0.06745697 -0.13301013 -0.00073752354 -0.07643265 0.02313528 -0.055949803
-0.11504025 0.012653373 -0.08582432 0.06895779 0.091321446 -0.048762593 -0.0359684 -0.006799885
0.087996244 -0.03446782 0.07104262 0.103446454 -0.123017006 -0.008053481 0.037404023 0.0035447448
-0.07148773 -0.033478502 -0.11419229 -0.025158515 0.054990932 0.00019573122 0.0829774 -0.11604581
-0.07486026 0.032323107 -0.019651275 0.01096393 -0.1489075 0.103217706 0.10092561 -0.04962309
-0.026245676 0.009619414 0.01273304 0.05282871 0.076375484 0.097614616 -0.1215871 0.049941372
0.055026338 -0.014825929 0.103999265 -0.08041972 0.083175406 -0.006341255 0.01448263 0.092098475
-0.098824136 0.06750935 0.08503478 -0.008433865 -0.12944597 0.07177918 -0.09396994 0.03567635
0.00616846 -0.07255986 0.13951398 -0.10479099 -0.04165762 0.018629253 0.10699923 0.07562645
0.048064232 0.12468914 0.030498138 0.020245027 -0.11887504 -0.025204914 0.0033282954 -0.1085921
0.0025564076 -0.01834013 -0.013426083 -0.020279787 -0.009299549 -0.07900407 0.073064245 -0.0006912473
0.10193859 -0.035860986 -0.02945731 -0.08621899 0.047786046 -0.095822394 -0.023275543 0.011436896
0.08016019 -0.023011798 -0.007328582 -0.06268854 -0.08494716 0.018746406 -0.015882153 0.10647302
-0.08654993 -0.031686474 0.0037207354 0.042872626 -0.050796803 -0.1550644 0.022896303 -0.09523448
0.0009152658 -0.11677169 0.070801996 -0.081955455 0.063321404 -0.10572039 0.058034226 -0.019233972
-0.115671046 0.1175918 0.054628123 -0.11194571 0.008428978 -0.011646476 0.016560448 0.02191271
0.040140606 -0.08107378 0.057195984 -0.06164115 0.051642954 -0.03298395 -0.08221225 -0.076170735
-0.054728664 0.060820147 -0.09730998 0.055643395 0.070522085 -0.021834277 0.03298709 -0.014406886
0.040204428 -0.13475671 0.05413054 0.032074016 -0.07820407 0.01761979 -0.032761827 0.0078027397
-0.11540378 0.0993748 -0.06906031 -0.0562422 0.008695891 0.03672015 -0.009489295 -0.07170738
-0.010368758 0.11725201 0.08311026 0.05988024 0.012399506 -0.07429417 -0.004536302 -0.008281079

linear.bias f4 [2]
00000000: a24c f83c 1fde 95bc
0.030309979 -0.018294392
