ReverseAttentionStyleTransfer/model/yelp_attn_cls.pth (torch, 202399 bytes, 3 tensors)

W_k.weight f4 [100, 500]
000000 ae 8e b3 3d 4c 6f 43 be 47 f7 01 3e d2 42 d6 3d
       0.08767448 -0.19085425 0.12691985 0.10461964
000010 a6 a0 38 3d 6a b9 2a 3e b6 72 54 bd 24 f7 a9 3d
       0.04507508 0.16672292 -0.05186721 0.082990915
000020 29 58 23 3e a3 27 b5 bd 00 de 66 3e 41 f9 9c 3e
       0.15951599 -0.08845451 0.22545624 0.30658916
000030 07 58 51 3d c0 cf 8a 3e 34 13 f3 bc 20 78 17 be
       0.05110934 0.27111626 -0.029672243 -0.14791918
000040 27 cb c8 bb 5b 5c da 3d 3e 17 bf bb b6 50 ee bd
       -0.0061277333 0.10662147 -0.005831628 -0.11636488
000050 4d 70 ad bd 6e b3 0c bc 66 b7 81 bd c5 2f a1 bd
       -0.08468685 -0.008587701 -0.063338086 -0.078704394
000060 02 9a e4 3d 61 5b c6 3b 1f b8 52 bb d1 87 51 3e
       0.11162187 0.0060533737 -0.0032153202 0.20461966
000070 3a 6f 23 be 18 5e a8 be 74 b6 4f 3d 08 ad 38 3c
       -0.15960398 -0.32884288 0.05071111 0.011271723
000080 51 e7 f2 3c 61 18 2c be 30 59 05 be 52 05 52 bd
       0.029651316 -0.16806175 -0.13022304 -0.051274605
000090 0c ac 43 be 62 06 80 ba e3 92 ab bd 1a ff f1 bc
       -0.191086 -0.0009767527 -0.08377626 -0.029540587
0000a0 25 82 b7 3d 4d 07 14 3d fd 52 00 3e da cf 14 3e
       0.0896037 0.036139775 0.12531658 0.14532414
0000b0 95 c9 d7 bc ab 06 26 bc e5 45 66 bd fa d7 19 3e
       -0.026341239 -0.010133426 -0.056219 0.15023795
0000c0 85 7e ca 3d b3 a3 8f bd 98 7f cc 3d 3e 12 65 bd
       0.09887413 -0.07013645 0.09985274 -0.0559256
0000d0 0c 48 cd bd 9f cd 5a 3e 40 8e 44 3e ab 3a 25 3d
       -0.100235075 0.213675 0.19194889 0.040339153
0000e0 88 90 9c bc 15 d8 d1 bb 4d e2 57 3d 19 83 91 bd
       -0.019111887 -0.006403933 0.05270605 -0.07105083
0000f0 44 80 39 3b 92 37 22 bd 15 58 a8 3d 03 d9 10 3e
       0.0028305212 -0.039603777 0.08219925 0.14145283
000100 2c 5f a8 bd 91 f1 13 be 6c 55 ba 3d 59 96 2b 3d
       -0.082212776 -0.14447619 0.09098324 0.04189143
000110 bc 06 e0 3d 47 b0 14 3e a2 e9 e2 3d 38 d4 c2 bd
       0.109387845 0.1452037 0.11079718 -0.09513134
000120 ca 04 9f 3d 45 4e b6 bd cd 2f 9c bd 06 5a 54 bd
       0.07764585 -0.089016475 -0.07626305 -0.051843666
000130 f0 96 8d 3d 0a 06 aa 3c 63 89 3f be 97 3b e6 bd
       0.06913555 0.020754833 -0.18704753 -0.112418346
000140 71 5e 81 3d 61 8a 2a bd d2 a1 b2 3d e8 7f 21 3e
       0.063168414 -0.041635875 0.08722271 0.15771449
000150 d8 2c 11 3c b3 32 1e bd 38 b0 c7 bc 15 ee 35 3d
       0.008860789 -0.03862257 -0.02437602 0.044416506
000160 e9 0e d6 3d 68 e5 8d bc f1 dc 06 bd ee f1 be 3d
       0.10452063 -0.017321303 -0.03292555 0.09323488
000170 93 a3 21 3c 87 3e 24 bd a0 36 c5 3c 91 10 e0 bd
       0.009865659 -0.040098693 0.024073899 -0.1094066
000180 82 f7 78 3d 7f f3 88 bd 85 a3 0f bd 2f 7e a4 3d
       0.060782917 -0.06687068 -0.035068054 0.0803188
000190 23 6d e1 3c 4e c0 ae 3d 42 16 82 3e c7 dd 21 3e
       0.02751786 0.08532773 0.25407606 0.15807258
0001a0 e3 e5 3f 3d 8a 84 87 bc 2f 51 b8 bd 99 1d 2a bd
       0.046850096 -0.016542692 -0.089998595 -0.041532133
0001b0 c8 92 da bd ff 76 09 3d 18 80 ca bc 5b 4f 43 3e
       -0.106725276 0.03356075 -0.024719283 0.1907324
0001c0 64 26 82 3d b3 fd 29 3d 31 d6 cf b6 dc 00 ee 3d
       0.06354979 0.041501712 -6.194016e-06 0.11621258
0001d0 40 c6 dd 3d b0 18 de bd fd 39 5b 3d 63 e6 e2 bc
       0.10828829 -0.108445525 0.0535221 -0.027697748
0001e0 43 80 c6 3d 1e 8f 0f 3e 8f 7d 02 bd ca 60 ab 3d
       0.09692433 0.14019439 -0.031858023 0.083680704
0001f0 0d 5e 52 bc 2f 84 37 3e aa 1a 1f bd ee 56 10 3d
       -0.012839806 0.17921518 -0.03884379 0.035239153
000200 ce e7 b5 3c ac ab f8 bd 3e a7 f5 3d 77 a2 c5 ba
       0.02220526 -0.12142119 0.119947895 -0.0015078326
000210 29 3f 0b bd 79 81 c7 3d 80 0f ea 3d a8 c5 75 bd
       -0.03399578 0.09741492 0.11428738 -0.060002953
000220 06 a6 ba b9 b6 34 29 bd 03 7c ee bd 7d 4e de bb
       -0.00035600382 -0.041310035 -0.11644747 -0.006784259
000230 19 bf 2c bd cc d2 bc bd 2c 37 53 3e 71 f6 0c 3d
       -0.042174432 -0.09219894 0.20626515 0.034414712
000240 e4 f3 7e 3d 2c 6f ad bd f5 62 8c bd b9 a1 70 bd
       0.06224431 -0.0846847 -0.06854812 -0.05874798
000250 11 5b 8d bc 37 d9 bc 3d fb 1c a6 bc 1f fa 5f bd
       -0.017255338 0.09221118 -0.02027749 -0.054681893
000260 50 d8 81 3e c5 78 b8 3b 4d 4e 9e 3c 55 f1 f7 3d
       0.25360346 0.005629631 0.019324446 0.12106577
000270 22 36 68 3d ed c7 c4 bc 40 3d 6f bd e1 e5 a8 bd
       0.05669225 -0.024021113 -0.058408022 -0.08246971
000280 3c ec e0 bd 74 4e 06 3d 1e 52 2b 3d 53 fc 3d 3d
       -0.10982558 0.032789662 0.04182636 0.046383213
000290 0b 90 b9 bd 23 54 16 3c 54 f4 17 be 8f 21 e1 3d
       -0.09060677 0.009175333 -0.14839298 0.10992729
0002a0 ee dc 4b 3d 9e c8 df bb bb 32 29 3d d6 0c 95 bd
       0.04977124 -0.0068293354 0.041308146 -0.07277839
0002b0 3d c3 2c bd 4d 3e e5 3b 96 6a 55 3e 20 7d 0f 3d
       -0.04217838 0.006995952 0.2084144 0.035031438
0002c0 d4 a4 1a 3e 76 36 9f 3e 79 6c 0e 3e b8 70 2a 3a
       0.1510194 0.31096238 0.13908567 0.0006501782
0002d0 bf 25 4f bc 55 fa 84 3d 28 24 b5 3d d5 51 1b 3e
       -0.012643277 0.064930595 0.08844787 0.15167935
0002e0 c7 a7 20 3d 60 cd 2a be 83 66 a9 3d 22 dd 76 bd
       0.039222505 -0.16679907 0.08271506 -0.060269482
0002f0 b3 9c 54 bb ca 91 f6 3d 42 ea 03 3e d7 94 29 bd
       -0.0032442033 0.12039526 0.12882331 -0.04140171
000300 6b 31 bc 3d 8a 5c fe 3c 68 62 ba bc af a7 fb bd
       0.09189113 0.031049985 -0.022752002 -0.122878425
000310 04 d5 de 3d 37 5b fe 3d 39 70 ca b8 fe 70 4e bd
       0.10880473 0.124197416 -9.653014e-05 -0.050400726
000320 97 2e e4 bd 65 d2 d4 bd 4b d9 48 bd 6b ee 49 bd
       -0.11141699 -0.10391692 -0.04903535 -0.04929964
000330 9f c2 2e 3e be ff 77 be 9e a7 6b 3d dd 66 e2 bd
       0.1706643 -0.24218652 0.0575329 -0.11054776
000340 ea 99 8e bd 11 e1 0e be ad 95 bc 3d 45 56 5b bd
       -0.069629505 -0.13953044 0.09208236 -0.05354907
000350 c0 35 01 3d 75 84 0c 3d 26 2d aa bd 31 b3 e4 3c
       0.0315454 0.03430601 -0.08309393 0.027917476
000360 d3 ad de 3d 67 42 8e 3d b9 27 a3 3c 09 0b 87 3e
       0.10872998 0.06946259 0.019916402 0.26375607
000370 89 05 dd bd c2 aa 7d bd 3d 56 21 3e 02 49 1f 3e
       -0.10792071 -0.061930425 0.15755554 0.15555194
000380 eb 29 bd bd 33 05 c4 3d 7b 29 1a bd 65 52 a9 bc
       -0.09236511 0.09571304 -0.037637215 -0.020669172
000390 aa 10 d8 bd d0 04 c4 3c 80 75 27 bd 77 1f 6c bd
       -0.105500534 0.023928076 -0.04088354 -0.057647195
0003a0 6d 57 2f 3d 0e a6 84 be 5e 18 db bd 57 7c db bd
       0.042807985 -0.2590794 -0.10698007 -0.10717075
0003b0 eb 4c 99 bd 8a 1e a3 bd ea 55 70 bd 31 9f 44 3d
       -0.07485374 -0.07964809 -0.058675684 0.04800338
0003c0 a9 f0 10 3a b6 8e 84 3d 26 93 4e bd e5 92 7f bd
       0.0005529025 0.064725325 -0.0504333 -0.06239595
0003d0 52 44 74 3d b8 66 95 bd 46 6a a5 3d de d5 95 bc
       0.059635468 -0.07294983 0.08076911 -0.018290456
0003e0 d2 13 a4 3d df 9b 3b bc ca 06 fd bc c5 1e 56 3d
       0.08011593 -0.011450737 -0.030887026 0.052275438
0003f0 f6 8c 91 3d 7b a1 1a be ee 1a 52 bd 43 46 45 3d
       0.07106964 -0.15100662 -0.051295213 0.04816271

W_k.bias f4 [100]
000000 98 53 26 3e e3 9e 69 3d b5 38 d4 3d fb 95 39 be
       0.16242826 0.05703629 0.103623785 -0.1812362
000010 2f 76 40 be b6 ce 30 bd d1 55 b1 3d 9b 3b 1a be
       -0.18795083 -0.043165885 0.08658946 -0.150618
000020 d6 1a c6 bc d8 0c 47 3d bf 57 74 be 2d 23 f8 3d
       -0.024182718 0.048596233 -0.23861597 0.12116084
000030 b9 52 ae 3d ae 11 38 bd f7 bf 40 be 96 8b 72 be
       0.08511872 -0.044938736 -0.18823229 -0.2368606
000040 bb f9 b6 3d 4e 61 d9 bd e9 83 ac 3d 0a 83 24 3e
       0.08934351 -0.106142625 0.08423597 0.16065612
000050 61 5e 38 bd 53 fd c1 3d ab 5d 35 3e ec b1 9b 3d
       -0.04501188 0.09472146 0.17711513 0.07602295
000060 e9 20 f4 bd f0 7b c1 bd f8 85 33 be ac b2 35 3d
       -0.119203396 -0.09447467 -0.17531574 0.044359848
000070 6b 62 64 be b3 e0 f8 3c 84 77 4c be 26 4f c4 bd
       -0.22303168 0.030380582 -0.19967467 -0.09585409
000080 44 7f 0b be bb 63 6f 3d 8e a8 31 3e 98 69 f1 bd
       -0.13622767 0.05844472 0.17349455 -0.117877185
000090 ec a4 a0 bd 1d 82 ed 3b 28 ec 17 be 20 79 1a 3d
       -0.07843956 0.0072481767 -0.1483618 0.03771317
0000a0 5d d1 77 3e 2f 1d 90 be 31 f1 ef 3c 44 55 34 be
       0.2420096 -0.28147265 0.029289814 -0.17610651
0000b0 b6 86 8f bd e0 57 d6 bc aa 4e 30 be 4f ae 0d 3e
       -0.07008116 -0.026164949 -0.17217508 0.13836025
0000c0 84 ff e6 3c 53 48 74 be 8f 5d a6 bd 2c de b1 3d
       0.028198011 -0.23855714 -0.08123314 0.08684954
0000d0 39 ff 4f be 66 6b 40 3d 07 18 76 bd 87 e4 ea 3d
       -0.20312203 0.046977423 -0.060081508 0.114693694
0000e0 25 48 de 3d 87 fb fc bd 04 9c 87 3d 75 a6 ea 3d
       0.10853604 -0.123526625 0.066215545 0.114575304
0000f0 a1 3e 3d 3e 58 79 0e 3e 49 80 b3 bc 14 7c e1 3d
       0.18480922 0.13913476 -0.021911757 0.11009994
000100 b3 87 24 3e 3f 9e d6 bd e6 2f 75 3b 54 07 ad 3c
       0.1606739 -0.10479402 0.0037412583 0.021121658
000110 10 43 fe 3c a5 a7 81 bd 05 63 98 3d 2f 43 30 be
       0.031037837 -0.06330804 0.074407615 -0.17213129
000120 81 5f c4 bd 86 b7 d9 3d a4 6b ad 3b 61 45 ac 3d
       -0.095885284 0.106307074 0.005292373 0.084116705
000130 4b 84 7d bd 10 3f d8 bd 23 7d a2 bd c0 97 0d be
       -0.061893743 -0.10558903 -0.07934024 -0.1382742
000140 10 b4 d5 bc 0a 60 1c bd 8f b1 0f be 13 56 b9 ba
       -0.026086837 -0.038177527 -0.14032577 -0.0014140032
000150 ff ff b9 3c a4 3c 67 bd cf 43 38 3d 9a 6d f3 bc
       0.022705076 -0.056454316 0.044986542 -0.029715348
000160 d3 9d e5 3c 1c 92 f2 bd cb b8 0b 3e 8a e0 12 be
       0.028029358 -0.118442744 0.13644712 -0.14343467
000170 f0 68 3e 3e e4 e9 0d be 4c a7 d9 bd 44 bd 21 bd
       0.18594718 -0.13858753 -0.106276125 -0.03948714
000180 08 ba 13 3e cc aa ce bd a9 79 d5 bd 46 9b e4 bc
       0.14426434 -0.10091171 -0.104235955 -0.027906071

v.weight f4 [1, 100]
000000 22 bb ab bc a7 fa 83 bc 67 05 0f bd 1c 0a 1b 3d
       -0.020963255 -0.016110731 -0.03491726 0.037851438
000010 e6 8f 2f 3d 6d bd 97 3c 68 c1 d0 bc af f3 08 bd
       0.04286184 0.018522942 -0.025482848 -0.03343552
000020 4b 32 19 3d be 1b de bc e8 09 6f 3d e5 86 12 bd
       0.03740148 -0.027112838 0.058359057 -0.035773177
000030 d5 3c 7e bd 6b 5f 1f bd 1e da 4a bd be 8e d3 3c
       -0.062069733 -0.038909357 -0.04952442 0.0258249
000040 62 0b 78 bd 87 13 40 3d 07 dd 64 3d d3 d9 68 bd
       -0.06055773 0.046893623 0.05587485 -0.05684836
000050 8d e9 e5 bc 4c f2 2e bd 8a 3c 7a bc 6e 26 33 3d
       -0.028065467 -0.04271154 -0.015273223 0.04373782
000060 14 a2 1b 3d 1f 0d cd 3c 39 28 48 3d 82 d8 0c 3d
       0.037996367 0.02503067 0.048866484 0.034386165
000070 c1 df 07 3d 99 9b 76 bd 74 24 29 3c 39 44 43 bd
       0.033172373 -0.060206983 0.0103236325 -0.047672484
000080 02 45 59 3d 4e 81 c8 3c fc 03 39 bd 36 72 5f 3d
       0.053044327 0.02447572 -0.045169815 0.05455228
000090 19 9a 46 3d 6e c0 b6 3c 66 5f 4d 3d d1 c9 4c 3d
       0.048486803 0.022308555 0.050139807 0.049997155
0000a0 a1 1c 04 bd b0 b6 f4 3c 18 db 2f 3d 9f 56 0e 3d
       -0.032253865 0.029872268 0.042933553 0.034750577
0000b0 06 59 f7 3c 73 3e 2b 3d 5b 24 05 3d a0 f5 c5 bc
       0.030193817 0.041807603 0.032505374 -0.024164975
0000c0 95 cf 1a bd 45 fe 36 3d 0e 62 07 3d 8c df 15 3d
       -0.037795622 0.044676084 0.033052497 0.036590144
0000d0 b7 ba 0f 3d 1c 1a 7a bc 94 7c 05 bd 2a ae e1 3c
       0.035090175 -0.015265014 -0.03258951 0.027548868
0000e0 91 b1 0a 3d 77 87 0d 3d ec 6d c7 3c 95 e4 3f bd
       0.033860747 0.034553017 0.024344407 -0.046848852
0000f0 d1 a5 05 bd 78 55 ea bc 1b e6 d9 3c 14 e2 b9 bc
       -0.032628838 -0.028605208 0.02659898 -0.02269081
000100 b5 81 15 bd 74 b7 cc 3c 71 72 25 bd 87 55 1c 3d
       -0.03650065 0.024989821 -0.040392343 0.038167503
000110 ba c9 67 bd 62 7b 0d bd 8a 5d 16 bd 11 24 e2 3c
       -0.056588866 -0.034541495 -0.0367103 0.027605088
000120 ca cf 74 3c 33 49 60 bd 7e d2 4a bd 00 87 30 3d
       0.014942119 -0.05475731 -0.049517147 0.043097496
000130 27 c9 28 3d 54 5d 91 bb c9 66 4f 3d 58 23 50 3d
       0.04120746 -0.0044361744 0.050635133 0.050814956
000140 00 ad 5d 3d a8 5b 28 bd 0a 42 0f bd 2b eb 0e 3d
       0.054120064 -0.041103035 -0.03497509 0.034892242
000150 bf bb e3 bc 4a 07 2b 3d 5d d2 1f 3d c2 b6 75 3c
       -0.027799485 0.041755 0.039018977 0.014997186
000160 cf e4 1b bd 50 80 d4 3c d0 7a 16 bd 9e 13 0d 3d
       -0.038060006 0.02594009 -0.036738217 0.034442537
000170 f9 c8 2b bd d3 bf 1f 3d cb ad dd 3c f6 03 ef 3c
       -0.04193971 0.039001297 0.02706041 0.029176693
000180 60 2b 54 bc 1d 8d 0a 3d e4 ec a3 3c 76 55 05 3d
       -0.0129497945 0.033825982 0.02001042 0.032552205
