ReverseAttentionStyleTransfer/model/yelp_attn_eval.pth (torch, 202399 bytes, 3 tensors)

W_k.weight f4 [100, 500]
-0.15995611 0.18137072 -0.08077387 -0.011249343 -0.094712175 0.082937256 -0.05468813 -0.011387098
-0.018941779 0.012924562 0.060214747 -0.09076262 0.02196168 -0.10228749 -0.0052486653 0.063736945
-0.14555073 0.0054590087 -0.084650844 0.045253057 -0.038623743 0.047515433 -0.054372776 0.14854786
-0.06007006 0.02537035 0.014476167 -0.062479347 -0.15167892 -0.0707382 0.070787534 0.048784066
-0.039292343 -0.17462406 0.012560474 -0.029318184 0.016753947 -0.109127775 -0.038532633 -0.018738484
0.086056724 -0.013580168 0.13586822 0.06772163 0.009419185 -0.05084675 -0.11189574 0.039054174
0.03253331 -0.073308945 0.07825139 0.043327942 -0.006424424 -0.05879215 -0.07305628 0.03203441
-0.0666029 0.00015415472 -0.13355897 0.0039166883 0.051332794 0.011726538 -0.11375058 0.06304336
-0.007580945 0.046405084 0.008257541 0.12065747 0.054241076 0.0953145 -0.008232059 0.097585686
-0.040938206 -0.1278424 0.0037985335 -0.10041312 -0.005525677 0.10495973 0.02300078 0.023255825
-0.064559296 0.06685969 0.09351406 -0.07829021 0.010151689 -0.16012569 -0.017956927 0.06422809
0.14684321 0.052653354 -0.030577732 0.05437267 -0.11612287 -0.027469058 -0.028412743 -0.011991745
0.025754977 0.0052978587 -0.05933347 -0.08882547 0.0156019265 0.010198249 -0.016337208 0.14331478
-0.044509757 0.15562955 0.05490667 0.08259072 0.038718473 0.0530266 -0.031223759 -0.057797275
-0.013164703 0.020707771 0.021392113 0.067638546 -0.019345164 0.009031501 -0.012025589 0.04060171
-0.109283425 -0.08704199 0.10255143 -0.01210618 0.039433215 0.11772853 -0.14639165 0.03855494
0.007016801 0.01921838 0.038281355 0.03407628 -0.015597644 0.05674139 0.07777152 -0.14552234
0.008470997 0.04518013 0.02381083 -0.06533946 -0.028166346 0.12345849 0.009653708 -0.076676495
-0.0009785052 0.0039984644 -0.04096465 0.06716272 0.057343606 -0.10770791 0.07720137 -0.054381557
0.08422412 -0.107681744 -0.029192286 -0.07333117 0.015329803 0.06181694 -0.114755295 -0.0052463748
-0.08403693 -0.046820924 -0.068162255 0.03218775 -0.09223012 -0.01664178 -0.036026914 -0.062079556
0.0012250999 0.019509925 -0.021846201 0.049686868 -0.15395558 0.018682746 -0.13136332 -0.11538771
0.063278824 0.030474013 0.06358764 -0.047210995 -0.10203026 0.004441332 -0.032867555 -0.13264452
-0.12871356 -0.029019918 0.12404783 0.021759784 -0.14934434 0.016189728 -0.019183513 -0.037545063
0.031348683 0.014708474 -0.078863025 0.03803317 -0.0552361 0.059294716 0.018127749 0.06087057
0.058670945 -0.040476322 -0.13216943 -0.031646512 -0.021315869 0.11560032 0.034401786 0.028682057
0.16086937 -0.005323413 0.050862547 -0.016454788 -0.054248035 -0.08147704 0.017106201 -0.04698078
-0.17705816 -0.037177283 0.030559478 0.00018471638 -0.018477386 0.12195097 -0.21197478 0.030918939
0.027560195 0.008614726 0.077132255 -0.011889461 -0.029351467 -0.08448766 0.02010201 0.07435344
-0.17704651 0.107807375 0.11041768 0.023555594 -0.041607957 0.014153875 -0.123421244 -0.0150856795
0.028706353 -0.012163208 -0.049880423 0.029249715 0.11702197 0.044488378 -0.16826332 0.10876823
-0.113284916 -0.050199572 -0.00655962 -0.09572307 0.12574406 0.0009637949 0.06460813 -0.09674001
00000000: 89cb 23be 3fb9 393e c56c a5bd 2a4f 38bc
00000010: 75f8 c1bd 02db a93d a900 60bd f390 3abc
00000020: ca2b 9bbc 8bc1 533c bda3 763d c1e1 b9bd
00000030: fbe8 b33c 1b7c d1bd fffc abbb 8488 823d
00000040: 400b 15be 7ce1 b23b 6c5d adbd 455b 393d
00000050: ee33 1ebd 8b9f 423d fdb5 5ebd ee1c 183e
00000060: 060c 76bd 7bd5 cf3c 722d 6d3c 58ea 7fbd
00000070: b851 1bbe 30df 90bd 0ef9 903d cdd1 473d
00000080: 02f1 20bd a6d0 32be 72ca 4d3c b02c f0bc
00000090: 933f 893c 627e dfbd 65d4 1dbd 7381 99bc
000000a0: 823e b03d 5a7f 5ebc 0a21 0b3e a3b1 8a3d
000000b0: ed52 1a3c af44 50bd 9829 e5bd 45f7 1f3d
000000c0: a641 053d 0023 96bd 4442 a03d a478 313d
000000d0: f983 d2bb 0ad0 70bd 889e 95bd 8336 033d
000000e0: 1a67 88bd 98a4 2139 afc3 08be 9057 803b
000000f0: 5642 523d aa20 403c 10f6 e8bd e11c 813d
00000100: 9369 f8bb 4213 3e3d a34a 073c 431b f73d
00000110: e42b 5e3d 4034 c33d c2df 06bc 01db c73d
00000120: d2ae 27bd 1ee9 02be d1f0 783b 65a5 cdbd
00000130: bd10 b5bb 20f5 d63d 226c bc3c 0083 be3c
00000140: aa37 84bd bced 883d 4d84 bf3d 9e56 a0bd
00000150: 4553 263c fdf7 23be 681a 93bc 048a 833d
00000160: 115e 163e 0bab 573d 277e fabc e0b5 5e3d
00000170: d4d1 edbd ca06 e1bc d7c1 e8bc 0679 44bc
00000180: 1afc d23c a999 ad3b a707 73bd 21ea b5bd
00000190: 399f 7f3c 8e16 273c 9cd5 85bc 1cc1 123e
000001a0: dd4f 36bd 5a5d 1f3e d1e5 603d 5325 a93d
000001b0: 4397 1e3d 6c32 593d f8c8 ffbc d6bc 6cbd
000001c0: c4b0 57bc 58a3 a93c 833e af3c 1486 8a3d
000001d0: c079 9ebc dcf8 133c fa06 45bc fb4d 263d
000001e0: fdcf dfbd 1243 b2bd 7c06 d23d 0059 46bc
000001f0: b984 213d a81b f13d b1e7 15be c9eb 1d3d
00000200: 31ed e53b dd6f 9d3c e9cc 1c3d 9293 0b3d
00000210: 438d 7fbc a969 683d ad46 9f3d cf03 15be
00000220: f0c9 0a3c cd0e 393d ee0e c33c b2d0 85bd
00000230: 1cbd e6bc ced7 fc3d 962a 1e3c 9108 9dbd
00000240: 3041 80ba 8d05 833b 8dca 27bd 9c8c 893d
00000250: 21e1 6a3d f795 dcbd c01b 9e3d 32bf 5ebd
00000260: b27d ac3d 3f88 dcbd a924 efbc a72e 96bd
00000270: db29 7b3c c233 7d3d d304 ebbd c8e9 abbb
00000280: 8e1b acbd 4cc7 3fbd a798 8bbd 4dd7 033d
00000290: 25e3 bcbd 5854 88bc f590 13bd 2247 7ebd
000002a0: 8893 a03a 47d3 9f3c cef6 b2bc 7584 4b3d
000002b0: 88a6 1dbe 8f0c 993c 1b84 06be 6450 ecbd
000002c0: 5498 813d a3a4 f93c 3d3a 823d 5160 41bd
000002d0: 3ef5 d0bd 9888 913b 21a0 06bd f7d3 07be
000002e0: 7dcd 03be 2ebb edbc ca0c fe3d 9341 b23c
000002f0: b9ed 18be 52a0 843c be26 9dbc dac8 19bd
00000300: 7a67 003d d0fb 703c f082 a1bd abc8 1b3d
00000310: 403f 62bd 04df 723d a580 943c 6b53 793d
00000320: f250 703d 80ca 25bd 6c57 07be c69f 01bd
00000330: 9e9e aebc dcbf ec3d e3e8 0c3d a2f6 ea3c
00000340: f1ba 243e 0670 aebb 3f55 503d 31cc 86bc
00000350: 3033 5ebd 6fdd a6bd 4e22 8c3c eb6e 40bd
00000360: bc4e 35be 3547 18bd df57 fa3c 6db0 4139
00000370: e35d 97bc 6ec1 f93d eb0f 59be b749 fd3c
00000380: ebc5 e13c c824 0d3c 84f7 9d3d 04cc 42bc
00000390: 7d72 f0bc de07 adbd f8ac a43c 9e46 983d
000003a0: ae4b 35be 1dca dc3d aa22 e23d a9f7 c03c
000003b0: 1b6d 2abd a8e5 673c 47c4 fcbd ed29 77bc
000003c0: 9629 eb3c 3148 47bc 6a4f 4cbd 199d ef3c
000003d0: 37a9 ef3d 7239 363d 384d 2cbe e1c1 de3d
000003e0: ec01 e8bd 119e 4dbd 15f2 d6bb 750a c4bd
000003f0: 0dc3 003e 2ea7 7c3a 4451 843d a01f c6bd

W_k.bias f4 [100]
0.11187981 -0.15805796 0.035024315 0.051105503 0.02206512 0.14908858 0.020982597 -0.009216813
-0.07020378 0.14759062 0.07696501 -0.07882821 -0.08907693 0.03222414 -0.00236818 0.06313803
0.036020163 -0.08494553 -0.11148651 0.027146041 0.23923519 0.083308965 -0.17625177 -0.045182467
0.0097393915 -0.09599725 -0.052260384 0.035636302 0.04562385 0.15286145 -0.047522083 -0.03865321
-0.067081355 -0.047367908 0.11916002 -0.17231439 0.026856273 -0.07699637 -0.1618128 -0.04987377
0.16735333 0.18859376 0.031726137 0.15092191 -0.09554906 0.049487807 -0.012280752 0.0870618
0.0152613325 0.056994487 0.078622 0.054833326 -0.1685911 0.013010821 -0.08508565 0.07153948
0.109310254 0.08133503 -0.090588324 0.09134175 -0.05748102 -0.054130808 0.027554061 0.049281433
-0.041748766 -0.059187204 -0.016155079 -0.009405051 0.059552044 -0.013452014 0.13617352 -0.10316221
0.070319675 0.097935356 -0.054525573 -0.06803399 0.10767296 -0.038306255 0.06336433 -0.012972974
0.09374662 0.15276001 0.038378567 0.07873531 0.0639857 -0.021601519 -0.13394308 0.14799671
0.02120126 -0.25538918 0.042182226 -0.14691392 -0.0007746882 -0.067731105 -0.1483518 0.026634289
0.0761322 -0.16965772 -0.06672128 2.5222413e-05
00000000: 3e21 e53d f2d9 21be a875 0f3d 0154 513d
00000010: e9c1 b43c adaa 183e b2e3 ab3c 1e02 17bc
00000020: 00c7 8fbd ff21 173e d59f 9d3d af70 a1bd
00000030: f76d b6bd 76fd 033d 7833 1bbb 834e 813d
00000040: e189 133d ecf7 adbd 0a53 e4bd 6061 de3c
00000050: 12fa 743e e49d aa3d 587b 34be 4011 39bd
00000060: f891 1f3c 359a c4bd fc0e 56bd 5ff7 113d
00000070: 13e0 3a3d b687 1c3e 84a6 42bd d452 1ebd
00000080: f361 89bd da04 42bd 2b0a f43d 2f73 30be
00000090: b001 dc3c 46b0 9dbd 41b2 25be 7048 4cbd
000000a0: ac5e 2b3e b91e 413e 44f3 013d 468b 1a3e
000000b0: 3aaf c3bd bab3 4a3d 3535 49bc 754d b23d
000000c0: ab0a 7a3c 0d73 693d 9204 a13d e998 603d
000000d0: 25a3 2cbe 572b 553c 6341 aebd 4a83 923d
000000e0: 0ede df3d fb92 a63d 5f86 b9bd 6211 bb3d
000000f0: 3871 6bbd 44b8 5dbd 0eb9 e13c 54db 493d
00000100: c100 2bbd 486e 72bd a857 84bc a517 1abc
00000110: d8ec 733d d665 5cbc 1271 0b3e b546 d3bd
00000120: c303 903d 5592 c83d 3556 5fbd 6855 8bbd
00000130: a483 dc3d 05e7 1cbd 28c5 813d 998c 54bc
00000140: 3afe bf3d 1f6d 1c3e d832 1d3d fa3f a13d
00000150: ef0a 833d abf5 b0bc 6028 09be 738c 173e
00000160: 44ae ad3c 5fc2 82be 45c7 2c3d 9a70 16be
00000170: 7214 4bba 9bb6 8abd 89e9 17be 2730 da3c
00000180: 33eb 9b3d c1ba 2dbe 2ba5 88bd b894 d337

v.weight f4 [1, 100]
-0.042607002 0.018528229 -0.0069685583 -0.024150895 -0.02240837 -0.033318054 0.0144510055 0.04337687
0.042672835 0.030615348 -0.051890522 0.05057875 0.027159743 -0.026291277 0.023464657 -0.050318312
-0.022855828 0.027220318 0.039727017 0.057960853 -0.042562135 -0.051088236 0.028698677 -0.03675136
0.0469948 0.038783208 0.03926487 0.032523256 -0.052344263 -0.04526719 0.037574183 0.016733777
0.026967805 0.012280674 -0.030081537 0.056601472 -0.012760091 0.02037603 0.0365717 0.044708677
-0.06324283 -0.049439333 -0.044455696 -0.05003268 0.037991773 0.044364754 -0.031720687 -0.052994315
0.039356723 -0.023495225 -0.021874037 -0.029124454 0.041106626 -0.045154117 0.028867533 -0.04754696
-0.026274454 -0.016414039 0.043441955 -0.032806113 0.032665346 0.039847177 -0.034609266 -0.020877894
0.03372478 0.027496744 -0.023525983 0.018369043 0.03428558 0.02942925 -0.05270577 0.018076846
0.03300324 -0.034482356 0.07013615 0.07307867 -0.046675798 0.03956106 -0.044307783 0.037171416
0.03135099 -0.032066632 -0.016121356 -0.026954662 -0.022816725 0.025885157 0.011165969 -0.04345154
-0.030551711 0.022982284 -0.03201499 0.025857907 0.023806717 0.025408912 0.035334937 -0.030913716
-0.024609262 0.051054895 0.04230959 0.04578491
00000000: ae84 2ebd 83c8 973c 8158 e4bb 19d8 c5bc
00000010: c291 b7bc 8378 08bd e9c3 6c3c f2ab 313d
00000020: b6c9 2e3d 0acd fa3c 288b 54bd aa2b 4f3d
00000030: 1c7e de3c ce60 d7bc f438 c03c 931a 4ebd
00000040: 253c bbbc 25fd de3c ccb8 223d 5c68 6d3d
00000050: a255 2ebd e641 51bd 7d19 eb3c 9888 16bd
00000060: 9f7d 403d 24db 1e3d 33d4 203d 1b37 053d
00000070: f066 56bd 176a 39bd 63e7 193d 4615 893c
00000080: 96eb dc3c e134 493c 8e6d f6bc f2d6 673d
00000090: b30f 51bc a2eb a63c 35cc 153d 7220 373d
000000a0: 7585 81bd e680 4abd 2d17 36bd 11ef 4cbd
000000b0: 439d 1b3d d1b7 353d 8ded 01bd 9110 59bd
000000c0: 8434 213d 0f79 c0bc 2e31 b3bc 6896 eebc
000000d0: 6c5f 283d 86f3 38bd 9b7b ec3c 9ac0 42bd
000000e0: 863d d7bc bc76 86bc 31f0 313d b45f 06bd
000000f0: 19cc 053d cb36 233d 72c2 0dbd 1e08 abbc
00000100: ff22 0a3d da40 e13c 90b9 c0bc ad7a 963c
00000110: 096f 0c3d 9c15 f13c 01e2 57bd e515 943c
00000120: 682e 073d 5f3d 0dbd 8ba3 8f3d 45aa 953d
00000130: 1f2f 3fbd c70a 223d 147c 35bd 0e41 183d
00000140: e569 003d 4d58 03bd ef10 84bc 06d0 dcbc
00000150: 24ea babc 1c0d d43c 78f1 363c 3efa 31bd
00000160: 9547 fabc 5845 bc3c 2622 03bd f6d3 d33c
00000170: 4e06 c33c 5a26 d03c 5ebb 103d c33e fdbc
00000180: 5d99 c9bc f01e 513d d24c 2d3d f588 3b3d
